nn_weights/in_vivo/rnoe/trained_nn.pt (torch, 783733 bytes, 16 tensors)

input.weight f4 [300, 35]
000000 60 1d 85 3d b9 92 63 3d 2e 34 bb 3d 25 b6 7c bd
       0.064997435 0.055559848 0.09140812 -0.061697144
000010 70 39 bc be 12 18 06 bd c1 44 ae bd eb fe 72 3d
       -0.3676257 -0.0327378 -0.085092075 0.05932514
000020 cb 98 68 3d 40 21 af 3d ae 1d ad bd 57 aa c1 3c
       0.05678634 0.08551264 -0.084529266 0.023640795
000030 e5 1a fd bd aa 8c 72 3d b3 63 2d 3e 69 74 47 3c
       -0.12358645 0.05921618 0.16932563 0.01217375
000040 ee 3a be bc 43 f8 06 3e 9e 60 dc 3d e2 f2 53 3d
       -0.02322146 0.13180642 0.10760616 0.051745303
000050 ce f6 17 3e 0f 90 03 3e 87 d4 4b 3d b7 51 8b 3d
       0.14840242 0.12847923 0.04976323 0.06802695
000060 e8 e9 a6 be 94 b4 0e 3d f5 19 82 bd a8 05 04 3e
       -0.3260033 0.03484018 -0.06352607 0.12892783
000070 92 af 09 be 8a 30 13 be bf b0 5d bd 76 91 f3 bd
       -0.13445881 -0.14373985 -0.054123636 -0.11892979
000080 ad 4a 12 3e 47 96 a5 3d 1c 85 3c 3d fb 83 a4 bc
       0.14286299 0.08085304 0.04602538 -0.020082464
000090 9d f5 b2 3c a4 ac d5 bd 69 0d 47 bd 11 71 ad 3c
       0.021845633 -0.10433319 -0.048596773 0.021172078
0000a0 87 db 1c be a9 10 85 bc 6d 3f 64 bc 3f 2f b2 3d
       -0.15318118 -0.016243296 -0.0139311375 0.08700418
0000b0 a4 a0 2a 3e ed 5b a1 3b de bf 83 bc f3 bb 22 3e
       0.16662842 0.0049242885 -0.0160827 0.1589201
0000c0 2f fa b7 bd a9 3c 5c 3d 4d 90 6f 3d 7b cc cf bd
       -0.089832656 0.053768788 0.058487225 -0.101464234
0000d0 f0 5a a0 bd 25 22 d4 3c 3c cd 9c bd 90 7a 30 ba
       -0.07829845 0.025895188 -0.07656333 -0.00067321304
0000e0 30 cb 23 3e d2 d5 74 bc b3 4c 8c 3d 8c dc ea 3d
       0.15995479 -0.014943557 0.06850567 0.11467847
0000f0 d1 38 e3 bd e5 72 a9 bb 49 93 3f 3b 93 ef 12 be
       -0.11094821 -0.005171167 0.0029232076 -0.14349203
000100 d7 1d dd bd a1 8f 06 3e ac 70 19 be d8 fa b6 3d
       -0.10796707 0.13140728 -0.14984387 0.089345634
000110 11 76 d9 bd b3 b6 02 bd e2 b9 08 bf 52 4e 60 3d
       -0.106182225 -0.031912517 -0.53408635 0.054762192
000120 fe 37 bc 3d 7c c7 86 3c 1c 6f 26 be c2 72 f9 bd
       0.09190367 0.016452543 -0.16253322 -0.121800914
000130 6d 3c da 3d d6 f2 26 bd 0f e7 02 3e ef 68 ed bc
       0.106560566 -0.04075893 0.12783454 -0.0289807
000140 96 19 72 3d 0f ac 34 3b a4 37 31 3d e9 5a f7 bd
       0.059106432 0.0027568375 0.043265954 -0.120778866
000150 27 a1 00 3e 99 3b 1f 3c a3 1f f7 bd 81 50 21 3e
       0.12561475 0.009718799 -0.12066581 0.15753366
000160 2b 9a 42 3d a9 0d 4c bd 83 b7 57 bd e8 d1 2d bd
       0.047510307 -0.049817715 -0.052665245 -0.04243651
000170 8f b1 d6 3d 62 53 29 be c3 bb b0 bd 09 d4 8e bd
       0.10483085 -0.16535714 -0.08629563 -0.06974036
000180 5e 92 a3 bc 95 3a 6c 3d fa c0 00 be 4a ad 54 bc
       -0.019967254 0.057673056 -0.12573615 -0.012980768
000190 16 50 f7 bd f0 9f ea 3c 2c 26 50 ba 73 b3 05 ba
       -0.12075822 0.028640717 -0.00079402584 -0.00051002874
0001a0 a4 66 2d bd 89 3c 11 bc ba ab 08 bd aa fd 45 3d
       -0.042334214 -0.00886453 -0.033366896 0.048337616
0001b0 d5 12 bf 3c ed 9a 81 bd b2 f4 b3 bd 37 b4 18 bd
       0.02332441 -0.06328378 -0.08786906 -0.03728124
0001c0 b5 b3 d7 3d 6c 64 3e be b8 49 49 3d e7 f3 30 be
       0.10532323 -0.18592995 0.04914257 -0.17280541
0001d0 aa 98 f8 3d 1b c9 0e 3e e6 df f8 3d bd c6 73 bd
       0.12138493 0.13943903 0.1215208 -0.059515703
0001e0 bf dc bd bb 68 98 24 be 0b 5f 0e be a1 f5 fa bd
       -0.0057941373 -0.16073763 -0.13903444 -0.12253881
0001f0 77 79 a7 3d 35 92 01 3d 7e e8 63 bd 9b 5b ed 3d
       0.081774645 0.031633575 -0.055641644 0.11589738
000200 dc f3 fe bd 05 62 3f 3e 22 c6 b4 3c 67 cc 3f bb
       -0.12448856 0.18689735 0.022067133 -0.002926612
000210 72 3a 0b be 10 2f c7 3d 05 f6 42 3d 5c c7 8e bd
       -0.13596514 0.09725773 0.047597904 -0.069716185
000220 f1 02 0c 3e 9e 1d c8 bd d4 87 a2 3d e2 68 0d 3e
       0.13672997 -0.09771274 0.079360634 0.13809541
000230 e6 e8 5e bd 8b 89 0a be 85 ab 56 bd a3 3d 09 be
       -0.054421328 -0.13529031 -0.052409668 -0.13402419
000240 94 3e f9 bd ca 05 01 bd f4 f1 59 bd 81 f1 45 bd
       -0.12170139 -0.03149966 -0.05320926 -0.04832602
000250 ea 7f ae 3d fe a7 0e 3e a4 6d cc 3b 04 7f 9c bc
       0.085204914 0.13931271 0.006238656 -0.019103535
000260 6c 0e 3a 3d 10 b7 b5 bc ab 70 70 3c b9 08 c7 3d
       0.04542391 -0.022182018 0.0146753 0.097184606
000270 99 2c 87 bd 01 cb 89 3d 1d 4a a9 3c c1 eb a7 3b
       -0.06600303 0.06728173 0.020665223 0.0051245396
000280 0f a4 0b 3e ea b0 45 bd d3 b1 d3 bd 92 ac f7 bd
       0.13636802 -0.04826442 -0.10336652 -0.12093462
000290 c8 d8 11 3d e5 e0 d5 3c 16 8f ba bd c7 b4 7b bd
       0.03560713 0.026108215 -0.09109323 -0.0614517
0002a0 bf c4 07 be 97 72 9d 3b 7f 69 18 bd 80 78 93 bd
       -0.13258646 0.00480492 -0.037209984 -0.07200718
0002b0 b8 a2 f1 3d 36 b7 45 3d c9 52 0a be 77 2d 9f 3d
       0.11798614 0.048270427 -0.13508143 0.077723436
0002c0 16 1e 06 3d 3f 1b 32 bd 50 e6 11 3b 65 ed 4b be
       0.032743536 -0.043483015 0.002226252 -0.19914778
0002d0 fc be eb 3d 92 38 ca 3d d0 44 fa bb 28 b1 91 3d
       0.11511037 0.09874071 -0.0076375976 0.07113868
0002e0 c8 23 6b 3d ca 69 cc bd 58 ee 6c 3b 56 ea 9e 3d
       0.05740717 -0.09981115 0.0036152806 0.0775954
0002f0 91 c8 8a 3d 7f fa 88 bd 25 73 05 be 2e 15 96 3d
       0.06776536 -0.06688403 -0.13032205 0.073282585
000300 b6 bd bc bd 2e a6 47 be d3 f9 73 3d 2d 9b ce bd
       -0.09215872 -0.19496986 0.059564423 -0.10088191
000310 62 11 eb 3d 95 85 b9 bd f4 ce 4f bd 20 cb 15 3e
       0.11477925 -0.09058682 -0.050734475 0.14628267
000320 36 95 33 be bb 52 b6 bd 5e 41 32 3d e0 39 5d be
       -0.17537388 -0.08902498 0.04351937 -0.21604109
000330 7f 3b 52 bd 08 98 d8 bd 24 83 4d 3d 4c aa cd bd
       -0.05132627 -0.10575873 0.050173894 -0.10042247
000340 48 c4 39 be 45 81 29 be 95 0f d3 bc e6 86 30 bc
       -0.18141282 -0.16553219 -0.025764266 -0.01077435
000350 72 51 90 bd 17 73 2b be 0c ea e3 3c 83 52 d0 bd
       -0.070467845 -0.16743122 0.027821563 -0.10171988
000360 53 c9 f5 3d 96 24 ee bc e9 cb dc 3d 9d 63 c5 bb
       0.1200129 -0.02907018 0.1078108 -0.0060238377
000370 42 13 9e bd 85 1b f3 3d d2 72 15 be 39 e6 0b be
       -0.07718517 0.11870483 -0.14594582 -0.13662042
000380 1d ff b6 3c cb 2c 36 bb e5 23 bb 3d e0 1d f9 3d
       0.022338444 -0.0027797695 0.09137706 0.12163901
000390 20 8d af bd f2 d3 df 3c 42 9f 00 be a2 f3 13 3e
       -0.08571839 0.027322743 -0.12560752 0.14448407
0003a0 69 05 7b 3d dd 91 24 be 43 80 d8 3d 64 0f 50 bd
       0.061284456 -0.16071267 0.10571339 -0.050795928
0003b0 6d f0 9a bd db 16 32 bc eb 83 88 3b 74 5d b0 bd
       -0.07565389 -0.010869707 0.0041661165 -0.08611575
0003c0 f2 ec c3 3c dc 51 92 bd c1 a4 15 3e 9f bc 9a bd
       0.023916695 -0.0714452 0.1461363 -0.07555508
0003d0 56 88 dd 3c 00 1c c8 3d e6 d7 8c 3d 57 e2 70 be
       0.02704255 0.097709656 0.06877117 -0.23523842
0003e0 43 d5 b4 3d 20 2d 21 bd da ad 18 be 15 60 37 be
       0.08829739 -0.039349675 -0.14910069 -0.17907746
0003f0 21 be 9a 3d 3a d4 f3 bd df b2 9f 3d 70 3f d6 3d
       0.075557955 -0.119057134 0.07797789 0.104613185

input.bias f4 [300]
000000 8c 9a e1 3d 55 e2 ef bd ab 55 be 3d 6b 59 eb bd
       0.110158056 -0.11713091 0.092936836 -0.114916645
000010 11 e6 b5 bd 53 b4 9f 3d 12 ab 2f bc 18 33 1e be
       -0.08881772 0.07798066 -0.010721939 -0.15449178
000020 ac 8d a0 bd 20 fe de bc a0 59 3b be 79 2b 0d bb
       -0.07839522 -0.027220786 -0.18295908 -0.0021540804
000030 d4 4d 91 bc 3e df a9 bd fc 7d ed bb f9 5b 6d 3c
       -0.017737307 -0.08294533 -0.0072476845 0.01448726
000040 cb 76 24 3e 0f 04 b9 bd 18 02 80 bd 80 50 23 be
       0.16060941 -0.09033977 -0.06250399 -0.15948677
000050 ec e0 19 be c8 1d 0d be 30 74 c4 3d 61 e7 7d 3c
       -0.15027207 -0.13780892 0.095924735 0.01549706
000060 e4 d7 b7 bd 35 ff 1d be 46 71 c4 bd 8a b9 25 be
       -0.08976725 -0.15429385 -0.09591918 -0.16184059
000070 65 30 10 3a 04 b4 28 bd 7f 87 3e 3e e9 05 9f 3d
       0.00055003754 -0.0411873 0.18606375 0.07764799
000080 5a 22 a7 bd 98 f1 f9 3d 57 b8 11 be e7 57 91 3d
       -0.08160849 0.122042835 -0.14230476 0.07096844
000090 8f 9f 87 bd 95 ca 97 3d 65 68 ed 3b e6 fa 91 bd
       -0.0662223 0.07411686 0.007245111 -0.07127933
0000a0 cc b6 9c 3b c2 c9 fc 3c a6 17 4a 3d c0 59 9d bd
       0.0047825333 0.030857924 0.04933896 -0.07683134
0000b0 74 75 04 3e c7 e4 81 3d 3c b8 e9 3d 5a 4f dd 3c
       0.1293543 0.06342464 0.11412093 0.027015377
0000c0 a7 57 07 be 0a 45 21 be f0 06 03 be 10 d1 8e 3c
       -0.1321703 -0.15748993 -0.12795615 0.017433673
0000d0 bd 5d 26 be 9a c4 b1 3d cb 8f b7 bc fe df 9e 3d
       -0.16246696 0.08680077 -0.022407433 0.07757567
0000e0 f8 61 88 3d ec 8b 17 3d ac 94 d1 bd a5 5a 3d be
       0.06659311 0.036998674 -0.10233435 -0.1849161
0000f0 d9 e8 fa bd 88 2f f9 3d 13 d2 1b 3d ce ca 74 bd
       -0.122514434 0.12167269 0.03804214 -0.059763722
000100 c1 51 3d 3d 22 8f 3c bb f6 14 30 3e 3a bb 32 3d
       0.046220545 -0.0028771837 0.17195496 0.043635584
000110 be d6 40 3d ca c9 a7 bd 93 eb 01 3c 59 9d 00 3e
       0.047079794 -0.08192785 0.0079297 0.12560023
000120 79 c1 06 3e 54 8a 92 3d 8c 7e 79 bb 71 27 cc bd
       0.13159741 0.0715529 -0.0038069813 -0.0996846
000130 b6 e4 8d bc 73 5a 28 bd d4 30 19 3e 6a c8 12 3e
       -0.017320972 -0.041101884 0.14960033 0.14334264
000140 8b 75 a5 bd c2 b5 22 bd 0e cd 29 3e ba 23 09 bc
       -0.0807906 -0.03972412 0.16582128 -0.008370334
000150 d6 9c 92 3c 2a 2e be 3d 66 fe 13 be 86 4e b7 bd
       0.01789705 0.09286149 -0.14452514 -0.08950524
000160 1f f7 6b bd 2d 99 0f be d7 2a 02 3e 6b 56 6c bd
       -0.05760872 -0.14023276 0.12711655 -0.057699602
000170 4d 75 be 3d ca 07 8c 3d b9 c3 10 be 58 61 0a 3d
       0.09299717 0.06837423 -0.14137162 0.03378424
000180 9c 48 61 3c 06 30 a9 bd 2d c2 1b be d6 59 49 3c
       0.013750222 -0.08261113 -0.15210791 0.012289485
000190 18 0b 32 be e9 71 ad bd 82 94 24 bc 11 f2 1f 3e
       -0.17387044 -0.08468992 -0.010045173 0.15619685
0001a0 d7 5b 8f bd 00 ab 1f bc da 7b 30 bd b6 bd 41 bd
       -0.06999939 -0.009745359 -0.043086864 -0.047300063
0001b0 56 75 a1 3d 31 ba 70 3b 0d 11 04 3e 72 01 17 bd
       0.07883708 0.0036732072 0.1289713 -0.036866613
0001c0 f9 d8 1e 3b 8c ea 05 be a1 d2 27 be c9 56 d7 3d
       0.0024238212 -0.13077754 -0.16388942 0.105146
0001d0 7b a8 6b bd 7f 1d da bc 5d 6a 8c bd 4e b8 a0 3c
       -0.057533722 -0.026625393 -0.06856225 0.019619133
0001e0 6a 63 29 be 4a b7 50 bd 65 73 5f bd 9e f1 2c bc
       -0.1654183 -0.050956048 -0.05455341 -0.010555653
0001f0 65 75 9f bd ed dc 0d 3d 4a d3 bf 3d 3e eb ea bd
       -0.07786063 0.03463452 0.09366472 -0.1147065
000200 d5 94 a9 bd d3 3c a2 bd 43 7b 32 bc 00 79 18 3e
       -0.082803406 -0.079217575 -0.010893646 0.14889908
000210 45 64 dd 3d e9 aa 05 3e dc 4f 23 be 79 be 03 bd
       0.108101405 0.13053478 -0.15948433 -0.03216407
000220 42 cf e5 bd 54 75 00 3e 8c 76 1a be 7d c9 f1 bc
       -0.11221172 0.12544757 -0.15084285 -0.029515022
000230 90 c6 6b 3d 27 a9 14 3e 4e 35 01 be 8e 58 73 bd
       0.05756241 0.14517651 -0.1261799 -0.059410624
000240 07 83 db 3c 7e f4 ba bd 95 03 f2 bd 01 1c 21 3e
       0.026795877 -0.091286644 -0.118170895 0.15733339
000250 fb 77 22 bc 79 49 fa 3d b4 cc 0d 3d 78 a5 99 3d
       -0.009916301 0.12221045 0.03461905 0.07502264
000260 76 ef 61 bd 4c c9 b2 bd 10 a2 1d be 47 80 01 be
       -0.05516001 -0.087298006 -0.15393853 -0.1264659
000270 9b 4f 1d be c6 fa d3 bd 40 ab dc 3d 0e 86 20 be
       -0.15362398 -0.103505656 0.10774851 -0.15676138
000280 b4 30 a5 bd 28 0d d7 3d 42 4d 00 3e 09 58 ea bd
       -0.0806593 0.10500556 0.12529472 -0.114425726
000290 16 91 8c 3d fc 3a f7 bc c2 76 04 be 7b bd f7 bc
       0.068636104 -0.030179493 -0.12935928 -0.030241719
0002a0 ce 20 29 be c5 a3 95 bd 52 e2 de 3d fa c5 94 3d
       -0.1651642 -0.07306627 0.10883011 0.072643235
0002b0 25 a3 80 3d 17 f9 d9 3d 1d a6 3c bd 22 ae d1 3d
       0.06281117 0.10643213 -0.046056855 0.10238291
0002c0 76 bb aa 3d 1f e6 0f be 38 4e cb ba e7 6e 0a 3e
       0.083365366 -0.14052628 -0.0015510982 0.13518868
0002d0 6b b9 9d 3d 7f d9 7a 3d 37 f9 9a 3d 61 f7 bd 3d
       0.07701381 0.061242577 0.07567065 0.092756994
0002e0 10 52 51 3d 32 b0 7e bd 09 bf 23 bd 3d 17 2f 3c
       0.05110365 -0.06217975 -0.039977107 0.010686693
0002f0 55 d4 8c 3d b6 27 b2 bd 43 fc d6 bd 35 55 1d 3e
       0.068764366 -0.086989805 -0.10497334 0.15364535
000300 0e 5d 27 be 7c a6 66 3d 73 50 13 3d 2c fc 9f bd
       -0.16344091 0.056311116 0.035965394 -0.0781177
000310 11 ab d9 3d b4 18 2a 3e 30 a0 eb bd c2 ad dd bd
       0.106283315 0.16610986 -0.11505163 -0.10824157
000320 91 1d 0d 3e 13 20 1c bd fb 52 0e 3d 34 9e cc bd
       0.1378081 -0.038116526 0.034747105 -0.09991112
000330 fe ef 8a bd 87 fc b7 3d f5 c4 65 bd 6a c9 89 3d
       -0.06784056 0.08983713 -0.056096036 0.0672787
000340 fe b4 63 3c 2c c3 38 bd 92 71 9c bd df 79 10 3d
       0.013898132 -0.045108005 -0.07638849 0.035272475
000350 c7 9d 83 bd fb cf 2e bb 61 59 28 be e1 40 93 bd
       -0.06426578 -0.002667426 -0.16440345 -0.07190109
000360 20 f7 28 bd 5f 63 3b bc 25 a7 fa 3d f9 1b 1b be
       -0.0412513 -0.011437266 0.122389115 -0.1514739
000370 3a af a1 3b 46 2c 7b 3d 56 39 e5 3d bd 3e 00 be
       0.0049342187 0.06132152 0.111925766 -0.12523933
000380 de f7 8c bc 0e fc c9 3d d9 b8 25 3e 13 7f 0b bd
       -0.017208036 0.09862529 0.16183795 -0.034056734
000390 41 4c 9b 3d 40 a2 a5 bd 9e d7 55 bd 4f b7 c7 bd
       0.07582904 -0.08087587 -0.05220758 -0.0975176
0003a0 e9 7f 6e bc ce 40 80 3d 86 c9 dc bd 19 f3 9d bd
       -0.014556863 0.062623605 -0.10780625 -0.07712383
0003b0 c7 cd 0f 3d 18 a8 0d be a9 fc 02 bd 60 d5 27 be
       0.035108354 -0.13833654 -0.031979237 -0.1638999
0003c0 53 75 2d be 07 14 05 3e e6 a1 ac bd 51 fc 97 3c
       -0.16939287 0.12995921 -0.08429317 0.018552931
0003d0 c4 7d 15 3e 5f 73 24 3d 0f e4 22 3e e4 ba 98 3d
       0.14598757 0.04014909 0.1590731 0.074575216
0003e0 51 d7 98 3c df ce 7b 3d ba 5d 25 be 4a 71 c2 3d
       0.018657358 0.061476585 -0.16149035 0.094942644
0003f0 21 c7 e7 3d 17 7a b4 3b e9 b2 d3 3c bc 72 2f 3d
       0.11317278 0.0055077183 0.025842147 0.04283403

output.weight f4 [2, 300]
000000 41 1c 9a bb ab 88 96 3c db a9 8a 3a 99 a0 ad 3c
       -0.004703075 0.018375715 0.0010579185 0.021194743
000010 2c 8e ff bb 6b 15 b8 ba ab b4 62 bc 89 6f a5 3c
       -0.0077989306 -0.0014044469 -0.01383702 0.020194786
000020 64 05 55 3c d5 d7 3e 3c 68 88 31 3b e0 3a 14 bc
       0.0130017735 0.011648138 0.002708936 -0.00904724
000030 cc 2e 96 3c 85 19 f9 3c d9 60 ed ba a3 e7 51 3c
       0.018332861 0.030407676 -0.0018110528 0.012811574
000040 bd c8 bb 3b 7f 04 ce 3c 0f 70 54 bb d9 13 10 3c
       0.005730717 0.025148628 -0.0032415425 0.008793795
000050 c5 93 ac 3c 01 61 a8 bb f2 ec 90 bb dd 48 88 bb
       0.021066556 -0.005138517 -0.0044227773 -0.0041590766
000060 11 6f 9d 3c 3f b5 1f bc 1e 46 42 bc 04 a3 19 3c
       0.019218 -0.009747802 -0.011857538 0.009377245
000070 83 ee 52 3c 1a 6b 83 bb 41 39 2d 3b 12 6e 2d bc
       0.012874248 -0.0040105702 0.002643183 -0.010585325
000080 46 14 d7 3b be 60 2e bc 17 cf 88 bc 31 46 a1 bb
       0.006563696 -0.010643182 -0.01670031 -0.0049216975
000090 23 88 0a bc ff bc f1 bb a6 9d 94 3c 45 0f 34 bc
       -0.008455309 -0.0073772664 0.018141579 -0.010989969
0000a0 b4 34 a8 3b a8 6f 19 bc 33 97 b3 3c 8a 8d 20 3c
       0.005133236 -0.009365 0.021922683 0.009799371
0000b0 80 a2 c4 bb d2 b5 64 3c 5e f6 74 bb 79 52 c4 3b
       -0.006000817 0.013959365 -0.0037378292 0.005991277
0000c0 1f 18 82 bc e9 2f 93 bb f9 e3 a6 bb 0f 4e ab 3c
       -0.015880642 -0.0044917953 -0.0050930944 0.020911245
0000d0 ca 4d 04 3a 96 63 6a bc 33 28 66 3c 4d 15 8a 3b
       0.0005046992 -0.01430597 0.01404767 0.004213965
0000e0 2f 32 4e 3c 4c e1 8a 3c 86 cd 87 bb 7d 49 8f b7
       0.012585207 0.016953133 -0.0041443733 -1.7081149e-05
0000f0 ed 49 91 3c 7a f7 b6 3c 99 14 83 bb 30 f5 d7 bb
       0.017735446 0.022334803 -0.004000258 -0.006590508
000100 ec d1 16 3c a3 fd 08 bb a2 82 47 bc cd 8a 96 3c
       0.009205323 -0.0020903132 -0.012177141 0.018376732
000110 74 80 a5 3b ba 88 97 3c fe c0 04 3c 43 f5 88 3c
       0.005050713 0.018497813 0.008102654 0.016718512
000120 ea cf a3 3c 48 99 22 bc 17 6a 5e bc de 29 99 3c
       0.019996602 -0.00992424 -0.0135750985 0.018696722
000130 48 87 86 3c 09 34 f9 3b 72 58 2f bc 32 15 8a 3c
       0.016421929 0.00760508 -0.010702239 0.01685581
000140 70 17 6f bb 3c 16 b4 bb 57 d3 8a bc 73 7b 9b bc
       -0.0036482476 -0.0054958146 -0.016946478 -0.018979764
000150 c0 c5 8e 3c a9 04 21 bb af 61 43 bc 05 6d 9d 3a
       0.017428279 -0.0024569428 -0.011925145 0.001201064
000160 e7 66 0a bc b9 8e 0b 3c 53 8e 0f 3c 79 46 b6 3c
       -0.008447385 0.008517914 0.00876196 0.0222504
000170 b9 10 77 bb b4 8f 73 3c fd 44 58 bc 42 f1 a0 3b
       -0.0037699176 0.014865804 -0.013200042 0.0049115727
000180 ba 0d 94 3c 66 10 19 bb 89 96 b1 3c 33 6a 58 bb
       0.018072952 -0.0023355721 0.021678226 -0.0033022284
000190 83 0d 8c bc 97 19 12 3c 76 c7 23 3c 79 d8 54 3c
       -0.017096287 0.008917234 0.009996286 0.012991064
0001a0 2f b4 8c 3c f5 54 bd bb b7 ad 79 bc 03 b9 89 3c
       0.017175762 -0.00577795 -0.015239171 0.016811853
0001b0 e8 f2 20 bc 92 0f 58 bc be f1 98 bb 41 f8 61 bc
       -0.009823538 -0.013187306 -0.00466749 -0.0137920985
0001c0 6e 0a 15 bc 6b 82 21 3b 89 dd 29 3c 1b a7 e2 bb
       -0.009096725 0.0024644386 0.0103677595 -0.006916893
0001d0 db 7d 6a bc 03 c1 03 bc 07 7e 47 3b f2 30 32 3c
       -0.014312233 -0.008041623 0.0030440108 0.010875927
0001e0 e4 f0 bf 3b 86 b9 21 3c 67 3d 1a bc bf 03 74 3c
       0.005857574 0.009870892 -0.0094140535 0.014893471
0001f0 3d 0e 39 bc 31 b3 2f bc f7 3d 9c 3b 9e b8 80 bb
       -0.011294899 -0.010723875 0.004768129 -0.003928258
000200 40 64 15 bc b0 24 c5 bb 70 dc 83 bc 01 97 37 ba
       -0.00911814 -0.0060163364 -0.016096324 -0.00070033973
000210 50 3e 49 bb 3f f6 ad 3c 79 c1 8d bc 4b 7a e6 ba
       -0.0030707307 0.021235583 -0.017304169 -0.0017584054
000220 5b 18 5f bc 08 00 4b 3c 33 e5 92 3c db 22 ea 3b
       -0.013616647 0.012390144 0.017931556 0.0071452684
000230 fe 12 13 34 95 62 0d 3c 85 e8 3b bc 43 d5 a7 3c
       1.3697351e-07 0.008629461 -0.011469011 0.020487433
000240 1c d5 0d 3c 68 a8 46 bc 84 b6 07 bc d9 2d 81 3c
       0.008656766 -0.012125112 -0.008283261 0.015768932
000250 8e c7 63 bc 6c ab 67 3b bc 8e 0a 3c 09 cb 6c 3c
       -0.013902558 0.0035349978 0.008456882 0.014452704
000260 dd 7a 62 bc 2b e8 87 3c 38 54 23 3c db 1f 4e 3c
       -0.013823238 0.016590199 0.00996881 0.012580837
000270 0a f2 98 bb a3 00 68 3c 69 04 19 3c 60 8e 4a 3c
       -0.004667525 0.014160308 0.00933943 0.012363046
000280 55 e6 7e 3c 44 e6 c3 3c f7 51 8e bb 99 0f a1 bb
       0.015557845 0.02391351 -0.004343267 -0.0049151895
000290 79 d6 d2 bb 6f d7 2d bb 6c ef a3 3c df 60 42 bc
       -0.0064342585 -0.0026526114 0.020011626 -0.011863916
0002a0 31 b1 6b 3c a8 82 5b bc c4 6e a7 bb ff cf 88 3c
       0.014385507 -0.01339785 -0.00510964 0.016700743
0002b0 d8 9f 1e bc 31 e6 59 3a 34 a1 2c 3c 0b a5 7e 3c
       -0.009681664 0.0008312194 0.010536481 0.015542279
0002c0 fd 26 f5 ba dc 8f 80 bb 60 41 a7 3c 15 80 75 bc
       -0.0018703636 -0.0039233994 0.020416915 -0.01498415
0002d0 58 32 b8 3c 66 54 94 bb 4b 32 05 bc 3f 33 20 3c
       0.022484943 -0.0045266626 -0.008129667 0.009777843
0002e0 31 22 6f bc 48 a0 16 bc 00 3b f0 bb 4f 6f 96 3c
       -0.014595554 -0.009193487 -0.007331252 0.018363623
0002f0 31 32 5c 3c 69 a5 97 3c 85 33 d2 bb a7 53 0b 3c
       0.013439701 0.01851149 -0.006414833 0.008503831
000300 28 fd 67 bc 33 92 5c ba 3a f4 7a bc b4 f1 81 bc
       -0.014159478 -0.00084141194 -0.015317017 -0.015862323
000310 bd 8c 3f ba 60 27 12 3a cb 5c f5 3b 2f 1a 39 bc
       -0.00073070434 0.00055753253 0.0074878684 -0.011297747
000320 98 fb 1f bc 23 53 a8 3c 5d f7 94 bc 6c aa f4 ba
       -0.0097645745 0.020547455 -0.018184358 -0.0018666512
000330 33 3e 0e bb 50 dd 29 bb 60 20 81 bc b6 5c 22 bc
       -0.0021704554 -0.0025919266 -0.015762508 -0.009909799
000340 5c 99 2e 3c 56 41 7d 3c d8 c3 57 3c a1 55 33 3b
       0.010656681 0.015457472 0.013169251 0.0027364271
000350 54 6a 92 3c aa 39 0e bc dd c3 a2 3c 34 46 0f 3c
       0.017872967 -0.00868074 0.019868786 0.008744765
000360 29 0c 25 3c ee c5 b7 3c 26 ce 3e bc 35 63 67 bc
       0.0100737 0.022433247 -0.011645829 -0.014122774
000370 a4 d3 22 3c 2d 7b 26 bc 1e 13 22 3c 77 64 ca ba
       0.009938154 -0.010161203 0.009892253 -0.0015441318
000380 b2 c7 63 3b 56 c4 81 bc 4c 99 ab 3c d3 b3 55 3b
       0.003475648 -0.01584069 0.020947121 0.0032608404
000390 f9 93 11 bc 93 6f 2c bc e3 b1 d6 ba 60 7d ee 3a
       -0.008885377 -0.010524648 -0.0016379919 0.0018195324
0003a0 31 9f 3e 3c cb 79 8d bb 7a b1 aa 3c 39 1e 2a bc
       0.011634634 -0.0043174974 0.02083658 -0.010383182
0003b0 b8 41 fe 3a 81 20 81 bb 56 e2 a3 bb 0a 0f 71 3a
       0.0019398248 -0.0039406423 -0.0050013466 0.00091956614
0003c0 dd 96 58 bc e4 6b 83 3c e4 d8 6d 3c 9b 49 49 bc
       -0.013219562 0.016042657 0.014517043 -0.012285615
0003d0 ab c6 05 38 08 bb 0d 39 90 50 1b bb 2f c0 eb 3c
       3.1894695e-05 0.00013516482 -0.0023699142 0.028778164
0003e0 c5 4f 39 3b a3 64 69 bc e8 5a 3d 3c 98 e1 4b bc
       0.0028276306 -0.014245185 0.011557318 -0.012443922
0003f0 83 ed 4a 3c d4 d2 af bb 89 59 71 bc 7c f7 a1 bc
       0.012385729 -0.005365709 -0.0147308195 -0.01977133

output.bias f4 [2]
000000 5b 3a ed b9 e5 55 ff 3c
       -0.0004524764 0.031168887

hidden.0.weight f4 [300, 300]
000000 f9 5c 73 bd 09 68 0a 3d 5d ed 0f 3d c5 6f b3 39
       -0.059414838 0.033790622 0.035138477 0.00034224815
000010 29 50 03 3d 79 59 a0 3c a9 ad 5e bc 63 51 0e bd
       0.03205887 0.019573914 -0.0135912085 -0.034745585
000020 9a aa 59 bc 1a 0a ec 3c f5 6d 09 bd 54 95 f1 3c
       -0.0132853035 0.02881341 -0.03355213 0.02949015
000030 8f 21 33 bd 0f 23 7e 3c 44 53 dc ba db 7a ac bc
       -0.043733176 0.015511288 -0.0016809483 -0.021054676
000040 23 f3 8d bc f7 5c 42 3d 8c a5 2c 3d 65 d0 a9 bc
       -0.01732785 0.04745194 0.042150065 -0.020729253
000050 2b 6f 64 3d ed 22 1c bd 75 83 a7 bb 73 2f 1a bc
       0.05577008 -0.038119245 -0.0051121064 -0.009410727
000060 50 b2 ba bc 92 14 13 bd 3b cd 11 3c 1c 24 66 3d
       -0.022790104 -0.03590829 0.008899028 0.05618678
000070 88 23 b5 3b f5 86 96 3c 60 18 f2 bc 56 3c 2e 3d
       0.0055279173 0.0183749 -0.029552639 0.04253801
000080 29 35 05 bd bd c7 83 3b d3 28 32 3d a0 9e 43 bd
       -0.0325214 0.0040216134 0.043495964 -0.0477587
000090 d1 32 56 bd 1f 0d 18 3d 8f 07 1a bd c0 bb b9 bc
       -0.052294556 0.03712189 -0.037604865 -0.022672534
0000a0 d5 96 cc 3c 83 bc b0 bc f7 5c 2b bd 48 6f 23 3d
       0.024974266 -0.021574264 -0.041836705 0.039901048
0000b0 27 88 0a 3c 38 63 87 bc 43 da 3f 3d 66 70 c9 bc
       0.008455313 -0.016526803 0.04683901 -0.024589729
0000c0 51 ed de bc 67 ab 0e bd da 04 35 bd fe 3f 04 3c
       -0.02721277 -0.03483143 -0.04419408 0.008071898
0000d0 ee 52 ed bc 99 e2 88 bd 2e 48 20 bd 3d 2a c2 bc
       -0.028970208 -0.06683845 -0.039131336 -0.023701781
0000e0 4c 75 76 bc fd cc 2c bd 5e 93 ce 3c a6 c8 0e 3c
       -0.015042614 -0.04218768 0.025216755 0.0087148305
0000f0 67 01 6c bc c6 7a 3a bc ec 67 ed bc 98 6c f4 bc
       -0.014404631 -0.0113818105 -0.028980218 -0.029836938
000100 75 ca e0 bc d6 cd 05 bb 78 b5 9d 3b 78 55 82 3c
       -0.027440289 -0.0020416877 0.0048128925 0.015909895
000110 e4 dc cd 3c fd 74 60 bc 70 1a ae bc 19 df c8 bc
       0.025129743 -0.013699767 -0.02125284 -0.024520444
000120 d3 17 85 bc c9 51 f0 bc 58 b4 c8 bc 1b df 94 3c
       -0.016246712 -0.029335873 -0.024500057 0.018172791
000130 01 70 6d 3c 96 a4 dd bc ff 48 68 bc fd 51 74 bd
       0.014492036 -0.02705602 -0.01417756 -0.059648503
000140 97 13 b3 bc a8 8b fe 3c 3b f0 8f bb b8 de bb 3b
       -0.021859927 0.031072453 -0.0043926514 0.0057333373
000150 36 1f 89 3c ed 65 4e bd cb 38 6c bd 7e fb c4 3c
       0.016738515 -0.050390173 -0.05767135 0.024045702
000160 d4 ad f0 3c c1 32 34 3d 9d cb cc 3c 02 6f 7f bd
       0.029379763 0.043993715 0.024999434 -0.062361725
000170 b0 4a 89 bd cd b2 f0 bc c5 ed a4 b9 01 fb 5c bd
       -0.06703699 -0.029382134 -0.0003145767 -0.053950313
000180 57 84 5e bb 2a e5 77 3c 2c 2d 21 3d 74 a1 dd bc
       -0.0033953392 0.015130321 0.03934972 -0.027054526
000190 f9 b5 3c 3b ad ba 55 3d 0e 07 b1 3b 1c 9e 4e bd
       0.0028794988 0.05217998 0.0054024523 -0.050443754
0001a0 d1 48 23 3d c1 14 35 bd f5 ab 3d bc 35 1c 8e 3c
       0.039864365 -0.044209246 -0.011576642 0.017347435
0001b0 05 a3 03 3c e1 f6 7c bd 78 e7 8a bc e2 b7 54 3d
       0.008034472 -0.06175888 -0.016956076 0.051933177
0001c0 e0 15 2a bd 8a 04 5b bd 26 4f e3 bc 76 fb cf bc
       -0.041524768 -0.053471126 -0.027747702 -0.02538846
0001d0 c0 bf 09 bd aa 1f 5a bc 0f 4d 75 3c 62 ab cd 3c
       -0.033630133 -0.013313213 0.0149719855 0.025106136
0001e0 29 8e 30 bd e5 ee da bb f2 6d 4d bd 57 98 67 bd
       -0.043104324 -0.0066813105 -0.05015368 -0.056541767
0001f0 26 67 26 3d e0 27 80 ba a3 84 c6 bc a0 35 1a bd
       0.040625714 -0.0009777509 -0.024233168 -0.037648797
000200 8e 1d b1 bc a5 a9 2d bc 6c 8e 00 bd a8 f0 ca bb
       -0.021620538 -0.010599528 -0.031385824 -0.0061932392
000210 79 93 69 bc 0e c6 04 3d 5f 2e 27 3d e5 c8 8e bc
       -0.014256352 0.032415442 0.040815707 -0.017429778
000220 c5 84 26 3c f2 f8 25 bd 00 24 95 3c 10 b0 2a bc
       0.010163491 -0.040520616 0.018205643 -0.010417953
000230 31 e1 c5 bb 5e f8 e7 3b ce 22 6b 3d 5a 3b 4b 3d
       -0.006038808 0.007079168 0.05740624 0.04961715
000240 30 9f 09 bd 60 62 03 bd a3 a4 e3 3c e8 87 09 3c
       -0.03359908 -0.03207624 0.027788466 0.008394219
000250 b6 34 05 bb 9f d0 32 bc e1 ff 56 bd 07 89 fb bc
       -0.0020325608 -0.010913997 -0.05249012 -0.030704988
000260 36 d2 8d bc 41 a4 64 bd fd aa 26 bd 79 71 23 3d
       -0.01731215 -0.055820707 -0.04069041 0.039903138
000270 29 6a 59 bd 2e 73 78 bd 89 4e 24 3d 08 ba 1c bd
       -0.053079758 -0.06065672 0.04011396 -0.03826335
000280 fa b3 21 bd 8d 0a 72 3c f6 a2 9b 3c 69 59 c5 bc
       -0.03947828 0.014773023 0.018998604 -0.024090486
000290 22 ff 32 bd d8 78 07 3d 7a 69 65 bb 2b 11 65 bc
       -0.043700345 0.03307423 -0.0035005496 -0.013981144
0002a0 1d 9d fe 3b d6 6a b9 bc 5a b7 07 bd cc 35 26 3d
       0.007770194 -0.022633951 -0.033133842 0.04057865
0002b0 0d 83 14 3d 0e 9f e1 bc a6 f6 80 3c 2e 37 5e 3d
       0.036257792 -0.027541663 0.015742611 0.054251842
0002c0 2f 37 80 bc f5 1d 3f 3d a1 69 2c 3b 0e ea 77 3c
       -0.015651314 0.04665943 0.0026308077 0.015131487
0002d0 da 08 e5 3c 96 41 50 bd 0b 0d 2c bd 87 8b 74 bc
       0.027958322 -0.050843798 -0.042004626 -0.014925844
0002e0 3a b7 4b 3c 60 ab 8d bd 8b d6 0e bd 38 cb 2d 3c
       0.012433821 -0.06917453 -0.034872573 0.010607533
0002f0 d1 f0 c2 bc bf 5d 54 3d 00 63 70 3c 51 67 0a bd
       -0.02379647 0.051847216 0.014672041 -0.033789936
000300 67 2e 3f bd dc 9c 37 3d 2a 36 aa bc 20 48 65 3d
       -0.046675112 0.044827327 -0.02077778 0.055976987
000310 22 6e 00 3d 48 fc 8e bc a9 8a 90 bc d5 22 b5 bc
       0.03135503 -0.017454281 -0.017644243 -0.022111336
000320 f4 5c 6d bd 77 39 d9 bc 09 79 c1 bc 41 ac 5b bd
       -0.057949975 -0.02651666 -0.023617284 -0.05363107
000330 be 55 3e bd ff e4 31 bc 7e 5b d2 3c d0 ca ef 3c
       -0.04646849 -0.01085782 0.025678392 0.029271513
000340 89 d8 a0 3c ce 47 27 3d de d3 d2 bc 44 ed 1a 3d
       0.019634502 0.040839963 -0.025735792 0.03782393
000350 9c e8 01 3d 3c e9 34 bd 18 83 34 bd 92 0d 33 3d
       0.031715974 -0.044167742 -0.044070333 0.043714114
000360 3f e5 03 3d 8b 91 91 3c 4b 63 06 bd b3 1b 67 3d
       0.032201048 0.017769596 -0.032809537 0.0564229
000370 c4 7a 26 bd 9a 40 98 3c 2a 42 3d 3d 8a 8c 5c bd
       -0.040644422 0.018585492 0.046205677 -0.053844966
000380 81 60 13 bb 00 67 ae 3c 2b ca 86 bd 84 6c 50 bd
       -0.002248794 0.021289349 -0.06581529 -0.05088474
000390 4c cd dc bb a2 24 26 bc f5 88 3a bd 56 a7 e9 b8
       -0.0067383405 -0.01014057 -0.04554077 -0.000111414745
0003a0 98 48 a9 bb 57 65 e5 bc e2 cb af bc 77 d0 df 3c
       -0.0051661246 -0.028002424 -0.021459524 0.027321083
0003b0 c7 6b fe bc 40 de 00 bd de 34 34 bb ca e6 fb bc
       -0.031057252 -0.031461954 -0.0027497332 -0.030749697
0003c0 b7 e6 a9 bc db b6 3a bd 1c d7 fb bc c7 c7 28 3d
       -0.020739896 -0.04558454 -0.03074222 0.041206148
0003d0 a4 2e fd bc 91 5c 1e bd 54 3f 61 3c 4b 2b d7 3b
       -0.030906029 -0.038662497 0.013748009 0.00656644
0003e0 f0 54 b3 3b 19 8e a6 3c 15 e2 a0 bc be 1c 32 3d
       0.005472772 0.02033143 -0.019639054 0.043484442
0003f0 b0 85 32 bd a7 a1 b0 3b 6c 66 58 3d de 60 88 bc
       -0.043584526 0.005390364 0.052832052 -0.016647752

hidden.0.bias f4 [300]
000000 a6 3d 11 3d 67 cd 67 bd 59 b9 45 bd ec 6a dc bc
       0.035459183 -0.05659237 -0.048272464 -0.026906453
000010 44 f1 e3 3c 4b f7 fb 3b 63 2b 63 3c 18 99 5d 3c
       0.027825005 0.0076893917 0.013865325 0.01352527
000020 95 4a 0a 3b 69 9a 1a bc 51 89 ea bc d3 63 18 bc
       0.0021101583 -0.009436228 -0.02862993 -0.009301144
000030 c9 38 51 3c 0b 64 f2 bc 5e 54 0b bd 38 1a ce 3b
       0.012769886 -0.02958872 -0.034016006 0.0062897466
000040 69 07 95 3c 46 f9 ab 3c 44 83 4d 3c af f4 bd 3c
       0.01819201 0.020992886 0.012543503 0.023187963
000050 29 5d 93 bb 5e ce 02 3c 5d b8 e2 3b 70 bd 27 bc
       -0.0044971895 0.007983772 0.0069189505 -0.0102380365
000060 34 1b c0 bc 67 73 73 3c da 61 0a bd d2 7e 1e bc
       -0.023450471 0.014859057 -0.033784725 -0.009673791
000070 e2 6a 53 bd d7 80 96 bd 81 16 ec 3b 05 69 b3 3c
       -0.051615603 -0.07348793 0.007204831 0.021900663
000080 3b df b9 3c 0f e3 1e bd 6c 4f d7 3c 39 88 02 bb
       0.022689452 -0.03879076 0.026282988 -0.001991762
000090 d1 7a 21 bd f9 19 68 bc db 22 c0 3c a2 ba 31 bc
       -0.039423767 -0.014166349 0.02345412 -0.010847719
0000a0 e8 35 d0 3c df 33 c1 3c 5d 95 ae 3c 33 71 d3 bb
       0.02541633 0.023584304 0.021311456 -0.0064527034
0000b0 8c 52 02 bd 6f 52 4a bd 1a 5a db 3c ee b0 0e bd
       -0.031817004 -0.04939502 0.026776362 -0.034836702
0000c0 2e aa 93 3b 97 c4 67 bd 0f 90 db bc c1 31 2b bd
       0.004506371 -0.056583967 -0.02680209 -0.041795496
0000d0 22 ed 27 3c aa 46 87 3c bc 62 3a bd 4b 54 dc ba
       0.010249408 0.016513187 -0.045504317 -0.0016809789
0000e0 74 c4 29 bd a7 fe 84 bc 0e 5f 90 bc 1c c2 3d bc
       -0.041447118 -0.016234709 -0.01762345 -0.011581924
0000f0 18 91 57 bd a8 db 9a bb 8e 58 dc bc 1d c7 d4 bc
       -0.052628607 -0.004725892 -0.026897695 -0.02597385
000100 fd f3 5c 3b 9d 3f 57 bc 94 5b 70 bd 0f c7 ca 3c
       0.0033714764 -0.013137725 -0.058681086 0.024753122
000110 e3 00 17 3c fc 7f 46 3d 45 73 14 3d f4 94 b6 37
       0.00921652 0.0484619 0.036242742 2.1765452e-05
000120 c2 32 c7 bc 11 d8 87 ba 27 b9 bd 3c de 6d 15 3d
       -0.024316195 -0.0010364075 0.023159577 0.03648173
000130 fe 0c 53 bd 79 d7 c2 3c d6 38 0b 3c 4c 21 a6 bc
       -0.051526062 0.023784386 0.008497437 -0.020279549
000140 e7 58 0b 3d 14 3e 71 bd ad e3 8a 3c ee 1b cc bb
       0.03402033 -0.058897093 0.016954267 -0.0062289154
000150 72 84 05 3d 26 8c 89 3b 15 56 cb bc 50 07 18 bc
       0.032597013 0.004197615 -0.02482132 -0.009279087
000160 9e bb ba b9 d7 47 44 bd 84 26 0d bd 55 71 b9 bc
       -0.0003561647 -0.047920074 -0.03446056 -0.022637049
000170 a4 ec 79 bd 28 24 2b bd a4 6f a9 bc 68 c1 d3 bc
       -0.061016694 -0.04178253 -0.020683117 -0.02584906
000180 6f d4 42 bd 77 67 d5 bc bd 65 56 bd 78 fc 68 3c
       -0.047565874 -0.026050312 -0.05234312 0.0142203495
000190 09 cc 40 bd 18 50 c8 bc 4e 9d a5 bc e3 26 c9 3c
       -0.047069583 -0.024452254 -0.02021661 0.024554675
0001a0 88 36 e3 39 07 d1 7c 3d cc a6 bf 3b f6 20 eb bc
       0.00043337443 0.06172278 0.005848741 -0.02870224
0001b0 d2 91 cd 3c d4 25 79 bd f3 ff 49 bc a0 4b b1 bb
       0.025093947 -0.06082709 -0.012329089 -0.0054106265
0001c0 fa 1d 68 bd ef 6e 86 3c e1 9f 22 bd 17 4c 86 bc
       -0.056669213 0.01641032 -0.039703254 -0.016393704
0001d0 d0 b5 69 bd a1 98 60 bc f9 e3 53 bd df a4 4a bc
       -0.057058156 -0.013708265 -0.051731084 -0.01236841
0001e0 5c e1 bc bc 5b 38 8e bb 75 32 ac bc 4d df 35 bd
       -0.023056678 -0.004340214 -0.021020154 -0.04440241
0001f0 2c 3e e6 3c eb a0 f4 bc be 62 1b 3d 02 f4 f4 bb
       0.028105818 -0.029861888 0.037935965 -0.007475377
000200 04 c2 39 bd 3e 04 ee 3b b8 08 1e bd fd 21 0a bc
       -0.045351043 0.0072636893 -0.038582534 -0.008430955
000210 1a e8 ec bc 57 6f 04 bc 71 7f 2c bd 44 dd 04 bc
       -0.028919268 -0.008083186 -0.042113725 -0.008109394
000220 7e a1 f5 bc 07 6b 53 bc 6f 4e a8 bc e9 c0 87 3b
       -0.029984232 -0.012903935 -0.020545213 0.0041428697
000230 c9 ce 47 bd 7e b5 af ba 47 e7 73 bd 7f 53 0d 3d
       -0.04878119 -0.0013405529 -0.059546735 0.034503456
000240 72 8f 1e bd 43 fb 8a bb 92 7a f6 3b 0a 82 64 3c
       -0.03871102 -0.0042413785 0.0075219357 0.013947019
000250 5a 71 00 3c 9d 96 99 3c 77 b7 70 3a f0 91 01 3c
       0.007839525 0.018748576 0.0009182612 0.007908329
000260 fa 27 91 3c 28 dc 0c bb c0 fe 37 bc da 66 8e bb
       0.017719258 -0.0021493528 -0.011230171 -0.004345757
000270 af f0 38 3d 74 cd d0 bc 7c 43 03 bd e3 5e 83 bc
       0.04515141 -0.025488593 -0.03204678 -0.016036456
000280 c6 50 3d bd 29 ff 0c bd 21 20 c6 3c 7d 52 1f bd
       -0.04621961 -0.034423027 0.024185242 -0.038897026
000290 6e a4 3a bd ca 23 b0 bc dd 9a 08 bb f9 ea 33 bd
       -0.04556697 -0.02150144 -0.0020844259 -0.04392526
0002a0 0d 1a 77 bd 23 be 2b bc 8d 86 23 3d 7d 48 55 bd
       -0.06032758 -0.010482344 0.03992324 -0.052071083
0002b0 39 a5 05 3b e2 f2 1c 3d 8c c4 58 3c 47 32 a9 3c
       0.002039267 0.03831757 0.013230454 0.020653857
0002c0 81 e8 c0 3c e8 74 2b bd 5c 92 05 3d 30 30 71 bd
       0.023548367 -0.041859537 0.032610282 -0.058883846
0002d0 74 29 db 38 3f ae 9c bb 38 27 67 bd 13 1d de bc
       0.00010450455 -0.004781514 -0.056433886 -0.027113473
0002e0 cd d5 d5 3b c1 9c 37 3c 0d 10 49 3c 18 83 0e bc
       0.006525731 0.011206807 0.012271893 -0.008698247
0002f0 01 1e cb bc 0a 7e ef 3c 5e ed 16 bd ef 28 3b bd
       -0.02479458 0.029234905 -0.036847465 -0.045693334
000300 d2 25 44 3c f0 4f ce 3c c9 af 3e bd f2 d7 4f 3c
       0.011971908 0.025184602 -0.04655436 0.012685763
000310 c4 c9 b3 3b ad 5c f6 bc fb 53 b2 bc 4d 1d 85 bc
       0.005486699 -0.030073488 -0.02176856 -0.016249323
000320 9d ac 08 bd ac fc b2 3c d3 65 38 bd ba c2 4b bd
       -0.03336774 0.021848999 -0.045018982 -0.049746253
000330 94 3a 56 3c 46 24 a8 3c e3 3b b3 3b 9a 49 d3 bc
       0.01307549 0.020525109 0.0054697855 -0.025791932
000340 43 6c 03 3d 12 02 16 bd 2e 07 d2 bc bd 7c 34 bc
       0.03208567 -0.03662307 -0.02563819 -0.011016068
000350 81 6f 73 3c f3 9a 5c bc c7 7d 15 3b a5 9b 27 bc
       0.014858128 -0.013464677 0.0022810565 -0.01022998
000360 fd 05 d5 bc a2 f8 e0 b9 06 12 42 bd 14 f4 4c 3c
       -0.026003832 -0.00042909855 -0.04738047 0.012509365
000370 ff c6 c6 bb cc 1d a2 3c b0 8f 1a bd fd 20 53 bd
       -0.0060662027 0.019789599 -0.037734687 -0.051545132
000380 82 3d 8e 3c 88 1a 8f bc 71 fa 08 3b f4 4c 0b 3d
       0.017363314 -0.017468706 0.0020901228 0.034008935
000390 eb 10 f5 3c 3d 23 71 3c 7c 87 e2 bc b2 6c 19 3d
       0.029915294 0.014717874 -0.027652495 0.037457176
0003a0 0c 89 69 bd 80 c7 e2 3c b6 00 6b 3c 23 f1 b6 bc
       -0.057015464 0.02768302 0.014343431 -0.02233178
0003b0 43 b9 cd 3c fe 5a 0a bc a8 3f fa bb 39 62 27 bc
       0.025112754 -0.008444546 -0.007636983 -0.010216289
0003c0 51 9e 97 3b 94 9f 69 3b e7 37 a3 bc f1 9d 2f bc
       0.004627027 0.0035648094 -0.019924117 -0.0107188085
0003d0 7b cb 24 bc 32 6b df bc ba ac fe bc cf 67 65 bd
       -0.010058279 -0.027272794 -0.031088222 -0.056007203
0003e0 46 3f c2 bb e2 d8 db 3c 6f 12 15 bb b0 7a 92 bb
       -0.005927953 0.026836816 -0.0022746583 -0.004470192
0003f0 97 ba ab 3b 9f 67 e9 3c 07 c4 f1 3c c4 60 2f bb
       0.005240749 0.028491793 0.029512418 -0.0026760558

hidden.1.weight f4 [300, 300]
000000 30 ea 79 bc 24 cf d9 3d b9 fc 91 3d cb ee aa 3d
       -0.015253589 0.10635212 0.07128281 0.083463274
000010 e9 6f 8e 3c 01 16 56 bd 39 75 c5 bd 0a 54 5c 3c
       0.017387347 -0.05226708 -0.09641499 0.013447771
000020 e8 ae 8f 3c d9 37 29 bd 88 35 6b 39 e9 df 91 3c
       0.017539456 -0.041313026 0.00022431288 0.017806964
000030 f1 07 9d 3c 00 6b 2e bd 49 e7 b4 ba 01 09 9d 3d
       0.019168826 -0.042582512 -0.0013801839 0.07667733
000040 c6 01 9b bc 40 2c 20 bd 86 46 2f 3d b7 d7 4f bc
       -0.018921744 -0.0391047 0.042791866 -0.012685708
000050 77 c0 17 bb 86 70 08 3d 26 6e cc bc 4b 3c 16 bd
       -0.002315549 0.033310436 -0.024954867 -0.036678594
000060 3d 27 30 bd 14 01 18 bc f9 4b 09 bb 53 28 d3 3c
       -0.04300617 -0.009277601 -0.0020949824 0.025776064
000070 ba 00 92 3d b6 c1 9c 3c e9 62 fd bd 45 5e 92 3b
       0.07129045 0.019135337 -0.12372381 0.004466804
000080 c7 fe dd bc bf f4 99 3d 20 97 58 3c 9f e9 2d bd
       -0.027099026 0.07517385 0.013219625 -0.042459127
000090 e9 0f 1c 3c 54 2e 64 bd 04 af 0f 3d b0 c6 70 bc
       0.009525278 -0.055708244 0.035079017 -0.014695808
0000a0 3c 58 17 bd 03 91 41 bd 4d 0f b7 3b ef 9c 95 bc
       -0.03694938 -0.047257435 0.005586541 -0.018263308
0000b0 8e 54 07 bd 03 ac e0 bc 9d 6a d7 bc f4 14 88 bc
       -0.033039622 -0.027425772 -0.026295954 -0.016611554
0000c0 ec c4 44 3c d9 64 24 3d cd 22 93 bd d4 44 67 bd
       0.01200984 0.04013524 -0.07184372 -0.056462124
0000d0 2d 5f d1 3c 05 a7 12 3d 5f 25 06 3c 37 54 36 3d
       0.025558079 0.035803813 0.008187621 0.044513907
0000e0 6e d8 59 3d a9 a1 58 bd 81 b6 47 bc 79 54 4e 3d
       0.05318492 -0.052888546 -0.012189508 0.05037353
0000f0 db 08 04 3e f9 ca da 3c 2b 36 19 3d 0f 3d 80 bd
       0.12894003 0.026708113 0.037405174 -0.06261646
000100 12 16 8a 3b 0f 93 45 3c 32 a4 ce 3c 58 40 0b 3d
       0.004214057 0.012058987 0.025224779 0.03399691
000110 c3 d4 01 bc 6f 35 99 3c 82 f7 28 3d b9 26 dc 3c
       -0.0079242615 0.018702237 0.041251667 0.026873933
000120 ed dd 15 3c 96 31 a9 3c 4b 92 69 be 98 bd 0b 3d
       0.0091471495 0.020653527 -0.22809713 0.034116358
000130 78 04 18 bd 3b af 66 3c 96 3e 3b bb e3 40 e4 bd
       -0.037113637 0.014079864 -0.002857124 -0.11145189
000140 b2 2c 30 bc 13 fb e3 3d 05 8c 48 bd e8 a4 db 3d
       -0.010752844 0.11131873 -0.048961658 0.10724813
000150 6e d3 08 3d 53 eb 8b 3d a3 0b c5 3c ab 5c c7 3c
       0.03340476 0.06831994 0.0240534 0.02433618
000160 ef d4 c3 3d be 1a 0c 3a 6f 9b 00 3d 25 5b a8 bc
       0.09562098 0.0005344561 0.031398233 -0.020551274
000170 4c cb 08 be 4b 37 c9 3c d0 33 12 bc 0e 9c 6d bc
       -0.13358802 0.024562499 -0.008923486 -0.014502538
000180 44 ba a0 3d 79 f4 a2 3c 72 38 26 3c 31 cd 97 3c
       0.07848027 0.019891964 0.010145294 0.01853046
000190 62 fa db bc b0 0c 94 bc b2 86 1c bd 35 a0 66 3d
       -0.02685279 -0.018072456 -0.038214393 0.05630513
0001a0 71 08 71 3c 43 bc 0a 3d 9c 73 0f 3d d4 f3 d1 bd
       0.014711485 0.033870947 0.035022363 -0.10251585
0001b0 25 73 2f 3c 02 11 b1 3d cf 3c ca bd 75 42 80 3b
       0.010708605 0.08645822 -0.098748796 0.0039141723
0001c0 fb 67 46 bd 47 3d 9d 3c 05 a1 6d 3c 1f a3 0a 3d
       -0.048439007 0.019194258 0.014503722 0.03384697
0001d0 ba 5b c5 3c 59 88 93 bd 6f 28 8a bc cc f5 7d 3d
       0.02409159 -0.072037406 -0.016864983 0.06200199
0001e0 75 ea 51 bc 0b 90 ae bc 16 1c 0f bd 2b 96 a2 3d
       -0.012812247 -0.02130892 -0.034938894 0.079387985
0001f0 c9 aa 29 3b 52 ec 8b bd bf a8 f4 bc 21 2a 85 3d
       0.002588915 -0.06832184 -0.02986562 0.06502176
000200 e3 27 70 bd 2f 4e 1c 3d 8d 40 a4 bc 85 dd 2d bd
       -0.05863179 0.0381605 -0.020050311 -0.042447586
000210 aa a3 f2 3c 3f d6 ff ba 91 28 7f bd 35 a5 7f bd
       0.029619057 -0.0019518806 -0.062294547 -0.062413413
000220 bf 08 9e bc bc b1 f4 3d cd 65 b5 38 e1 f1 4c bd
       -0.01929128 0.11947963 8.6497144e-05 -0.05003536
000230 27 ab c4 3d ba 30 d1 bc 28 92 8f 3d 4c fc 0c bd
       0.09602957 -0.02553593 0.07010299 -0.034420297
000240 b1 36 bf 3d b7 f9 a3 bb 99 fd 02 bd e0 61 82 3b
       0.093366034 -0.0050041336 -0.03198013 0.0039789528
000250 65 d6 6c 3b 3b 67 96 bb e5 50 23 3c ff bd 2a 3d
       0.0036138531 -0.0045899427 0.009968017 0.0416851
000260 c1 09 1c 3d 15 38 67 3d f2 ae 07 bc 5a 1c 78 bd
       0.03809524 0.05644997 -0.008281456 -0.060573913
000270 75 b1 c7 3c 80 32 8f 3d b7 a8 2c 3c 67 86 f7 bd
       0.02437661 0.06992054 0.010538272 -0.12086182
000280 cd 98 47 bc ac d8 a0 bc d9 f8 06 bd b1 af 7f bc
       -0.012182427 -0.019634567 -0.032952163 -0.015605853
000290 09 98 79 bd f4 54 df bd 5c 52 cf 3c 40 2d 4b bd
       -0.060936008 -0.109048754 0.025307827 -0.0496037
0002a0 04 5f 80 3d b8 82 0c 38 c6 8a 7b bd 0a f7 e7 3b
       0.06268123 3.3500342e-05 -0.06141164 0.00707901
0002b0 29 80 c6 bb 74 73 75 bc 2b ac 80 bc 4e 95 aa 3a
       -0.0060577583 -0.014981139 -0.015707096 0.0013014467
0002c0 11 c1 fc bc 48 ff 2e 3d bd 1b 50 3c b5 2a 30 3c
       -0.03085378 0.042723924 0.012701926 0.01075237
0002d0 05 e5 71 3d 07 79 8a bc 64 d0 a4 3c b4 3c 11 3c
       0.0590563 -0.016903413 0.0201189 0.00886457
0002e0 ea 65 c8 bc 48 78 0f 3d 3c 30 40 3c 66 00 6c 3c
       -0.024462659 0.03502682 0.01173025 0.014404392
0002f0 11 08 5d bd ab 16 3f 3d 95 5b ef bc 67 c4 04 ba
       -0.05396277 0.046652477 -0.029218474 -0.00050646666
000300 18 61 0d bd 17 0b eb 3c 92 f2 ac bc 35 67 00 3d
       -0.034516424 0.028691811 -0.02111176 0.031348426
000310 4f 62 c5 bd 54 08 37 bd 94 97 06 3c 20 93 39 bd
       -0.096378915 -0.044685677 0.00821485 -0.045306325
000320 ab d5 31 3c a3 fc 2f bd ca 7d a5 3d 37 0a 4c bc
       0.010854165 -0.042965543 0.08080633 -0.012453607
000330 a4 b7 de bc a1 97 cf bc 48 e1 67 ba c6 5d d8 bc
       -0.027187176 -0.025340857 -0.000884552 -0.026411902
000340 98 1d 78 3d 36 38 64 3d c7 96 03 3d bc 4e 83 bc
       0.060575098 0.05571767 0.032126214 -0.016028754
000350 9e 3e 86 3d da 8b 99 bc 95 ec 78 bc 70 81 0b bd
       0.06554912 -0.018743444 -0.015193124 -0.034058988
000360 05 3e ed bc d1 3c c0 3b 89 fb bb bb b1 52 e1 3c
       -0.028960237 0.005866625 -0.0057367724 0.02750525
000370 db 7f 52 bd 80 0b c6 bd a2 06 f6 bb 15 d5 aa 3c
       -0.051391464 -0.09670162 -0.007508115 0.020853559
000380 ee 4d b8 bb 5b 17 05 3d 6c 61 b3 3d 42 f0 11 bd
       -0.0056245243 0.032492977 0.08758816 -0.03562952
000390 ae bb 1d bd 39 0c 2d 3d 19 f5 c2 3d 63 66 41 3c
       -0.038509063 0.042247985 0.09519405 0.011804196
0003a0 be 9a d3 bc 17 6e 65 bd 70 f5 40 bb 7b 5b 6a bd
       -0.025830623 -0.056013193 -0.0029443167 -0.05721615
0003b0 fd 8f be 3e d3 29 68 3d 57 31 e1 bd b7 e2 66 3d
       0.3721923 0.05668051 -0.10995739 0.056368556
0003c0 f4 7b a5 3c ea dd ff bc 27 14 56 bb 90 13 2b 3d
       0.020200707 -0.031233747 -0.003266582 0.041766703
0003d0 af ee 63 bc 5c 98 be 3d 0d 12 24 3c 54 32 3d bc
       -0.013911887 0.09306404 0.010014069 -0.011547644
0003e0 3b 08 55 bd f8 67 dd 3b a5 b2 94 bc 35 23 8c bd
       -0.052009802 0.006756779 -0.01815159 -0.06842653
0003f0 90 40 2f bd 0e fd 5a bc 69 49 62 3c a1 1c 60 3c
       -0.04278618 -0.013365997 0.013811448 0.013678701

hidden.1.bias f4 [300]
000000 94 87 ce bd d1 db c3 bc 9a 86 be 3b 68 e5 80 bd
       -0.10084453 -0.023908528 0.0058143856 -0.06293756
000010 6b 5a 7c 3c e4 37 e5 bc 76 39 33 bd d2 c0 9e 3b
       0.015402417 -0.027980752 -0.04375597 0.0048447633
000020 29 00 ec bc b6 5f d4 3c aa ad c2 b9 8e 75 22 bd
       -0.02880867 0.025924545 -0.00037131953 -0.03966289
000030 65 44 ac bc 6a 00 0a be fb bf c3 bc 53 09 08 3d
       -0.021028707 -0.1347672 -0.023895254 0.033212017
000040 19 de c2 3c 1e 9d 26 3c 6e e4 db bd c5 1e 63 bb
       0.023787545 0.010169296 -0.10736929 -0.0034655791
000050 f7 fa e5 bb 2b 52 53 bc 60 59 91 3d 11 98 78 bd
       -0.0070184427 -0.012898008 0.07097125 -0.060691897
000060 4a ff 84 bc 35 3d ed bc 4f 67 a0 bd ab e5 80 3c
       -0.016235013 -0.02895985 -0.078322046 0.015734514
000070 d3 2f 2c bd d7 a1 1c be 17 28 dd bd 91 26 ef 3d
       -0.042037796 -0.15296112 -0.10798662 0.11677278
000080 8e 5a 84 bc 4f 48 8f bd 35 cd 3a bd 40 39 80 3b
       -0.016156461 -0.06996214 -0.045605857 0.0039130747
000090 c5 ba 8b bd 13 8e b3 3d db 4e e2 bb 87 bc 12 bd
       -0.06822733 0.08767333 -0.006906373 -0.035824325
0000a0 9a 6d ae bd b7 fe 88 3d f4 dc 1e bc 45 09 33 bd
       -0.085169986 0.06689208 -0.009696234 -0.043710012
0000b0 75 b1 4d bd d2 eb 07 bd 9c 3a 27 bd cc a4 16 be
       -0.050218064 -0.03318388 -0.04082738 -0.14711303
0000c0 57 fb 2a 3d 5d 17 69 bd 1e 92 79 bd 69 ea 26 bc
       0.041743603 -0.056907047 -0.060930364 -0.010187724
0000d0 fb 2e ba 3d 7a e6 98 bd 7d a3 8a bd 0a fc 66 3d
       0.09090992 -0.07465835 -0.06769464 0.056392707
0000e0 a4 78 89 bc 4b 94 19 bd 3f 08 1c be fe f1 19 bd
       -0.016781159 -0.03749494 -0.1523752 -0.037584297
0000f0 23 40 84 bd 87 1c ac 3c d6 e2 9b bd aa 09 26 3a
       -0.064575456 0.021009697 -0.07611625 0.00063338375
000100 d3 6d 82 bd 12 4a dd 3d a7 8b 62 3a 06 e3 ed bc
       -0.063686036 0.108051434 0.00086420256 -0.029038917
000110 02 61 db 3c 28 53 b0 bc dd 68 5e bc 9c a4 be bc
       0.026779655 -0.021524027 -0.013574806 -0.023271851
000120 f0 f4 ee bc 2a 97 f8 3d 5f 14 82 bd df 2e d7 bc
       -0.02916953 0.12138207 -0.06351542 -0.026267467
000130 c3 2f c2 bc 94 64 05 be 3d d8 30 3c 49 7f 99 3b
       -0.023704415 -0.13026649 0.010793743 0.004684363
000140 f5 c6 7c bd c0 94 07 bd 5f 29 b9 bc 65 be 43 3d
       -0.061713178 -0.033100843 -0.022602735 0.047788996
000150 a2 7e c0 3a 28 50 bb bd 69 58 9b bd 7c 83 02 bd
       0.0014686177 -0.09146148 -0.07585222 -0.031863675
000160 6d 7d f6 bb 88 1b 61 bd 10 a7 cd bc b7 0c 75 bc
       -0.007522276 -0.054957896 -0.025104076 -0.014956645
000170 b3 2e c3 bd ea d1 06 be 77 79 a5 bc 2e 38 04 be
       -0.095303915 -0.13166013 -0.02019952 -0.12912056
000180 a9 f1 f4 3b cc c7 9a 3d aa 80 40 bd d3 55 16 be
       0.007475097 0.075576395 -0.046997704 -0.14681177
000190 a7 0b db 3d 05 e9 70 bc c9 ab 78 bd f8 0a 56 3d
       0.10695582 -0.014703994 -0.060710702 0.052256554
0001a0 99 b4 b2 bd eb 6d 23 bd 13 94 ac bd 0e 06 bb 3b
       -0.087258525 -0.039899748 -0.084266804 0.005707509
0001b0 c9 68 e6 3c e0 61 b5 3d d1 ab 0c bd 23 17 c3 bd
       0.028126137 0.08856559 -0.034343544 -0.09525897
0001c0 74 60 55 bd 1c c3 95 3d bd ac 4c bd 4c 71 95 3d
       -0.052093938 0.07312605 -0.049969424 0.07297
0001d0 f3 2e 2f 3d 14 a0 95 bd 43 a7 41 bd 2a ce 07 be
       0.042769384 -0.07305923 -0.047278654 -0.13262239
0001e0 69 cc af bc bd 1c 1e 3d 24 02 89 3d df ea d7 bd
       -0.021459775 0.038601626 0.066898614 -0.10542845
0001f0 e0 56 b6 bd 03 41 19 bd bc dd 3a bd 7c cd e0 3c
       -0.08903289 -0.037415516 -0.04562162 0.027441733
000200 a5 ea 54 bd e3 d0 81 bd 51 c7 25 bd 50 81 cb bd
       -0.051981587 -0.0633867 -0.040473286 -0.09936774
000210 0f 0e aa bc c2 37 bf 3a 2d d7 77 3d a1 c4 bf bd
       -0.020758657 0.0014588761 0.060507942 -0.09363676
000220 d9 a4 cb bc fd a6 17 bd 4e 9a 5a 3c e3 ad 7f 3d
       -0.024858879 -0.037024487 0.013342453 0.06242169
000230 82 8e e5 bd cd 03 b4 bb 3a 5a bd 3d 29 47 29 bd
       -0.11208822 -0.005493617 0.09245725 -0.04132763
000240 7d 92 c7 bd f4 0f 30 be 8e 00 5d 3d a5 00 1e bd
       -0.09744737 -0.17193586 0.053955607 -0.038574833
000250 5a a8 3d be 16 e2 27 bd ae 06 84 bd 8a 63 02 bd
       -0.18521252 -0.040987097 -0.064465865 -0.03183321
000260 8e cc ca 3b c0 f7 98 3d 6a cf 31 bd db 0e 93 bc
       0.0061889356 0.074691296 -0.043410696 -0.01795142
000270 e3 dd 35 bd 2c 86 af bd 07 64 a2 bb 0f fe 2a bd
       -0.04440106 -0.08570513 -0.004955772 -0.041746195
000280 c1 17 eb 3c dc 01 a2 3b b7 bf a9 bc 72 b6 74 bb
       0.02869785 0.0049440693 -0.0207213 -0.0037340191
000290 be 71 09 bd 9a 62 63 bd 39 e5 6b 3c 22 3f 20 be
       -0.03355574 -0.055513956 0.014397913 -0.15649083
0002a0 a0 e7 1c bd 57 9b 35 3c 8b cf b4 bd 7d fd dc bc
       -0.038306832 0.011084399 -0.08828648 -0.026976341
0002b0 24 cb 36 bd 6f 05 7d bc ce 5d ae bb a9 9b 4b bd
       -0.044627324 -0.01544319 -0.005321241 -0.049708996
0002c0 45 69 60 bd 02 3b c0 3b 33 42 a6 3c db a2 9e bc
       -0.054787893 0.0058664093 0.020295238 -0.019364765
0002d0 1a bf 39 bd 0b 48 2b bd 6a 51 d2 bc 3e 9a 70 bd
       -0.045348264 -0.041816752 -0.025673587 -0.058740847
0002e0 87 1b 66 3d 05 9d 0a be 2c 38 84 bd d9 b0 98 bb
       0.056178596 -0.1353646 -0.064560264 -0.0046597538
0002f0 aa f3 7f bd 07 72 85 bd dd 49 b6 bd 6c d8 16 bc
       -0.062488236 -0.065158896 -0.08900807 -0.009206872
000300 dc 0f 8b bc ff 63 f1 bc fc 75 59 bc 6d c9 d7 3d
       -0.016975336 -0.029466627 -0.013272759 0.10536466
000310 ea 7a 10 3c fe fd 38 3d b3 49 27 3d de 8c 74 3c
       0.0088183675 0.0451641 0.04084177 0.0149261635
000320 f4 bd 0f be 2e 77 49 bd 95 6e 29 3d 3c 41 07 bd
       -0.14037305 -0.049185924 0.041365225 -0.033021197
000330 33 0c d4 3c 78 64 b3 bd 9a 43 71 bd 9e a1 b3 3d
       0.025884723 -0.08759397 -0.05890236 0.087710604
000340 52 b5 74 bd 28 de da bd 92 59 f5 bc 61 45 c0 bd
       -0.059743233 -0.10686904 -0.029949937 -0.09388233
000350 4c 3f 5d bd 18 5e 02 be 45 22 42 bd d4 a0 e8 3b
       -0.054015443 -0.12731206 -0.047395963 0.0070992503
000360 19 f8 4b 3c 5b 6f 16 be d3 a8 29 3c 1c 23 e5 bb
       0.012449288 -0.14690916 0.010355192 -0.0069927108
000370 e8 9c 3b bd bd cd 81 bd e0 fb 75 bd b6 43 f4 bd
       -0.045803934 -0.063380696 -0.06005466 -0.11926977
000380 57 c6 75 bd a0 37 28 be e7 b2 36 3d d0 2e 96 bd
       -0.060003605 -0.16427469 0.04460421 -0.073331475
000390 e9 ed 50 bd 01 f1 2a bd 50 31 aa bd 82 8c 84 3d
       -0.05100814 -0.041733745 -0.08310187 0.06472112
0003a0 d2 54 84 bd 5d 5e 27 bd 2e 16 01 bd 07 4c f0 bd
       -0.06461491 -0.040861476 -0.031515293 -0.11733251
0003b0 e2 92 a0 bb c1 71 0c be 0c 9a 08 bd 66 59 9a bd
       -0.0049003223 -0.13715269 -0.033350036 -0.07536583
0003c0 be 8b 33 bd 9c 2d fa bb 60 00 13 be 40 6e 95 bd
       -0.04383444 -0.0076348316 -0.14355612 -0.07296419
0003d0 68 97 f2 bd e4 8b 2d 3b 15 99 d9 3c 97 2d b9 bd
       -0.11845285 0.0026481086 0.026562253 -0.09041899
0003e0 ca e7 8f 3c 90 a5 ac 3d f1 24 61 bd 7c 57 68 3a
       0.01756658 0.08430016 -0.05496687 0.0008863134
0003f0 9c d2 bf bd dd 9b 3f 3d 01 cc 34 be 5e b2 c3 bd
       -0.093663424 0.046779502 -0.17655946 -0.09555505
