nn_weights/in_vivo/mt/trained_nn.pt (torch, 781373 bytes, 16 tensors)

input.weight f4 [300, 33]
00000000: d1fb 193c addc e53d 7196 353e 97aa 11be
00000010: 520b dabd e590 79bd d418 eebd 1be6 e63c
00000020: ff41 ddbc 7596 f73d cb78 fdbd aa73 203d
00000030: bc39 ffbd 7888 573d a559 213e 6b19 35bd
00000040: a906 8fbd f7f2 fe3d ff37 af3d 9cfe 383d
00000050: c832 ed3d 1de4 123e ec40 8b3d 1f94 1e3d
00000060: 0e3f babd 95df 053b 2b3e 86bd 1447 db3d
00000070: 8cba 06be 4406 2dbe ee6f 62bd 3781 22be
00000080: 5845 2e3e 5682 883d 5b7f 833d d80b 36bb
00000090: 1a69 75ba 4cfd d7bd 9a1c 8ebd 42f7 4bbb
000000a0: 388b 37be 1c0d 32bd 25eb f63c 4d5f b73d
000000b0: 8c62 4a3e 01ab c5bb cf2c 41bd 5e16 353e
000000c0: 3751 e5bd da3b 573d 0dac 293d 477d e5bd
000000d0: bd9f 93bd 518b 00bb 1b86 a6bd 5c83 513c
000000e0: 1cad 033e 5b42 46bc e1d3 993d 3051 323e
000000f0: fa22 e0bd f696 5a3c 3b35 bebc 3874 03be
00000100: 9082 f6bd ddc0 103e 7d05 1ebe 7271 bc3d
00000110: 3af4 dfbd ce9d 06bd 0c4d 1ebe 35c7 373d
00000120: 83f9 ed3d 01c3 d3bc 4036 94bd 84fe e5bd
00000130: 5685 213e e8d2 7ebd f6a0 d33d f1fb a5bd
00000140: 97b2 803c 04f1 5e3c 5b99 02bc d9fa 15be
00000150: af2b 853d 7411 a33d edf4 4ebd 8ebd 153e
00000160: fff5 05bc 1258 a5bd 1b43 6bbd 716d c3bc
00000170: b465 213d adf9 06be 0340 c9bd 8aea fbbd
00000180: 6fc5 b33b 9581 14bd d129 2ebe b19e c03c
00000190: 775a c6bd 8d3e 413b a037 d8bc ca65 91bd
000001a0: c10a fdbd 6f48 893d dd19 44bd 6147 ec3d
000001b0: 4d1a 1a3e b1d7 863c cb3f 2bbd d7e8 683c
000001c0: 831d 153e d034 05be f984 a23d f63f 1bbe
000001d0: 035d 073e 3260 c63d 74c8 153e 9ede debc
000001e0: 5468 bb3d 71bd 19be 6d23 11be 5aaa 09be
000001f0: b908 ee3d 98ac 993d fbb4 71bd 496f e13d
00000200: 924c dfbd 62ed ad3d 5d63 963d 60fe 2b3d
00000210: 650a e9bd d1f6 0b3e 1eb0 d43d 081a 16bd
00000220: 3ddd 323e 3011 d8bd dd6f a63d 3586 d73d
00000230: 302f 61bd 194d 0abe 0baf 57bd bcf3 0bbe
00000240: 2390 f9bd ce48 f2bc 745d 58bd e977 31bd
00000250: 2a2f b53d c3d2 163e 6b60 083c 2022 85bc
00000260: 0069 403d 029e 9cbc 0d02 863c 78cc cd3d
00000270: 3556 81bd 5d92 8b3d 9047 8f3c f0de 0e3c
00000280: e192 103e 7aa4 48bd 7d3c cdbd 1a3d ffbd
00000290: b7b8 0d3d 43cc ce3c 2aa7 a9bd 4467 8ebd
000002a0: 4e5e f9bd 0d9c 9f3b 9d53 e9bc 59e6 6ebd
000002b0: 82e6 093e 0965 883d 679e 25be 9510 003e
000002c0: 0b81 123e 74d4 a3bd 91cf 1c3e b314 2fbd
000002d0: 9777 263e 559c 0f3e 8ed8 a73d fc3c 1f3e
000002e0: 4110 bd3d 0a39 f9bb 6454 cb3d 7898 193e
000002f0: ce3e e83d bf1d 90bb e10b e2bd 2251 703d
00000300: c4ab f4bc 3fac 17be 5c11 0b3e 88a7 8ebd
00000310: 4b54 013e 94d8 0bbd e296 5fbd cb36 093e
00000320: 80a0 09be 4580 86bd 5594 203e 006c 0dbe
00000330: 4d5e 8bbd bbe5 e3bd 9dfa ec3d b492 89bd
00000340: 0aa9 b4bd 70ef c7bd d3cb d0bc 6029 84bc
00000350: 2fd4 89bd d715 36be 529c d73c 71a4 debd
00000360: 63dd f53d 2ea1 09bd f22c dc3d b023 23bc
00000370: 70a0 a6bd d8fb f03d d504 1dbe faf1 12be
00000380: af90 b23c 8287 cbbb b718 b83d e470 f83d
00000390: 721b bbbd c0fd ce3c 4251 07be 10ee 113e
000003a0: 323f 833d e961 2cbe 36b3 0b3e b64a 04bd
000003b0: f65f 5fbd c417 ee3b 451a a03c 61dc 8cbd
000003c0: 69f2 0d3d fc5a 88bd 80e2 233e aff0 8abd
000003d0: a681 5b3d f2ff 1a3e 1f18 063e 8652 13be
000003e0: f677 293e a0d2 953c e58a e8bd 6aa6 1ebe
000003f0: ca2e 023e 5812 c1bd 8953 0b3e e212 233e
0.009398417 0.11223731 0.1773317 -0.14225231 -0.106466904 -0.060929198 -0.11625829 0.028185895
-0.027009008 0.12089244 -0.12376555 0.039172806 -0.12462184 0.05262038 0.15756853 -0.044213694
-0.06983692 0.124486856 0.08555602 0.04516469 0.115819514 0.14344831 0.06799492 0.038715478
-0.09094058 0.0020427455 -0.06554826 0.107069165 -0.131571 -0.16896921 -0.055282526 -0.15869604
0.1701864 0.066654846 0.064207755 -0.0027778056 -0.00093616697 -0.105463594 -0.06939049 -0.003112272
-0.17924201 -0.043469533 0.030141423 0.08953724 0.19764155 -0.006032348 -0.047161873 0.17684314
-0.11197131 0.052547313 0.041423846 -0.112055354 -0.07208202 -0.001961429 -0.08131047 0.012787666
0.12859005 -0.012100781 0.07511116 0.17413783 -0.10944171 0.013341656 -0.023218742 -0.12837303
-0.120366216 0.14136072 -0.15431781 0.092013255 -0.109352544 -0.032865338 -0.15459079 0.044867713
0.11619856 -0.025849821 -0.0723691 -0.11230186 0.1577352 -0.062212855 0.10333435 -0.08104695
0.015710158 0.013607267 -0.007971133 -0.14646472 0.065024726 0.07962313 -0.05052655 0.1462309
-0.008176326 -0.08073439 -0.057437044 -0.023855897 0.039403632 -0.13181181 -0.098266624 -0.12300594
0.0054861824 -0.03625639 -0.17008139 0.02351317 -0.096852235 0.0029486746 -0.026393712 -0.07099493
-0.12355567 0.06703269 -0.047876228 0.11537052 0.15049095 0.016460272 -0.041808885 0.01421567
0.14562039 -0.13008428 0.07935519 -0.15161118 0.13219075 0.096863165 0.14627248 -0.027205762
0.091507584 -0.15013672 -0.1417367 -0.1344389 0.116227575 0.07503623 -0.059010487 0.11007554
-0.109032765 0.08492543 0.07343171 0.041990638 -0.11378936 0.13668372 0.10385154 -0.03664592
0.17467208 -0.10550153 0.08126805 0.10523645 -0.054976642 -0.13505973 -0.05265717 -0.13667196
-0.12185695 -0.029575732 -0.0528235 -0.043327246 0.088468865 0.14728837 0.008323769 -0.016251624
0.046975136 -0.019118313 0.0163584 0.10048765 -0.06315271 0.06815026 0.017490178 0.008720145
0.1411853 -0.048984982 -0.10021303 -0.12462826 0.034599986 0.025243884 -0.08283837 -0.0695329
-0.1217619 0.0048708976 -0.028482253 -0.058325145 0.13466838 0.06659896 -0.16173707 0.12506326
0.14307038 -0.079995066 0.15313555 -0.04274435 0.16256557 0.1402448 0.081956014 0.15550607
0.09231616 -0.0076056765 0.099282056 0.14999568 0.11340104 -0.0043980773 -0.11037422 0.058671124
-0.02986706 -0.148118 0.13580841 -0.06965548 0.12629811 -0.034142092 -0.054587252 0.13399808
-0.13440132 -0.06567434 0.15681584 -0.1381073 -0.06805096 -0.11127802 0.11571238 -0.067174345
-0.08821304 -0.09762466 -0.025487816 -0.01613301 -0.06729924 -0.17781769 0.026319657 -0.108712085
0.12005117 -0.03360098 0.1075076 -0.009957239 -0.0813607 0.117667854 -0.15333875 -0.14350119
0.021797506 -0.006211222 0.08989089 0.12130907 -0.09136094 0.025267482 -0.13214591 0.1425097
0.06408538 -0.16834225 0.13642582 -0.032297812 -0.054534875 0.0072660167 0.019543776 -0.068779714
0.03465501 -0.06657979 0.16004372 -0.06784188 0.05359044 0.15136698 0.13095139 -0.14386949
0.16549668 0.01828891 -0.11354617 -0.1549317 0.12713161 -0.09427327 0.13606085 0.15925172

input.bias f4 [300]
00000000: 7766 2c3e 4be3 103e f59b f5bd 32c1 f13d
00000010: 28f3 c63c c4ee dabd cebb c33c 32a2 24bd
00000020: a2aa 353d 9525 273e 2108 aebd fd18 03be
00000030: 40d3 2cbe dec1 0c3e 4de5 093e 0f46 1cbd
00000040: 1ca7 19bd 8e7d 373b bb77 c63d bf42 2abe
00000050: 526c 1c3e 20d3 af3d 5e43 13bd 7a78 2f3e
00000060: 283c f73d 76f0 cc3c ef7b 6dbd 02c4 13be
00000070: eef1 113e faad aebd a119 22be e573 27be
00000080: aa67 a8bc 7917 08bc a791 d53d bfe2 3fbd
00000090: fd55 3a3d e4c9 2cbe 4d96 afbd bae3 313e
000000a0: 8b8e 8d3c 0d89 073d c574 223e 5bbb 613d
000000b0: 6f1e f43c 5260 c33d d7a3 edbd 48d6 01bd
000000c0: 02b5 8b3d 1b39 1cbe d481 7b3c 9eb6 853d
000000d0: a5c2 253e 3481 2dbb 76e3 293e cbf7 fbbd
000000e0: 09a3 c3bd bafa 94bd 58f5 463d 338e 153e
000000f0: 162f 8bbc 6115 21bd 02e8 10bb f38a f53b
00000100: 5bf8 1cbe ca5f 8bbd d323 c2bd 9892 56bc
00000110: 1845 babd 6456 153e 293f 1fbe 2496 813d
00000120: 8c68 7bbd b9dd 263e bed4 153e 2b09 123e
00000130: 60c3 adbd 11f5 14be 0209 b73d cbf3 c33d
00000140: 3580 c3ba e2dd 363d 7d10 793d f1cb 673c
00000150: b560 abbd 06b1 af3c 22fa 25bd 5b09 183d
00000160: ede1 16bd 077e b0bc 6a5e 593d 4804 f8bd
00000170: 738c ac3d 4036 193d 2678 94bd 1667 f5bd
00000180: 7601 7a3c 635e 003d ad53 13be 7a36 d3bd
00000190: 41fd 80bd 3af2 1f3e 4c34 b13d a79f 22be
000001a0: c098 0ebd 7d35 403c cb3c 193d 2914 dd3d
000001b0: 30ae 0f3c c305 543c bfe8 dc3d b0a9 c63d
000001c0: 9ee5 af3d 1ef8 1c3e 52ba 073b 0506 043b
000001d0: 63a6 73bd edd5 ba3d e16b 8ebd 9bc4 06be
000001e0: 549f d33d 189d 06bd 6c33 1abe 4f6f a03b
000001f0: af04 b7bd 1b62 10be 6800 2d3e 5ba8 cebd
00000200: 262d f5bd 7940 a7bd e691 35bd a54c 21be
00000210: 3968 1cbd 5b78 20bd 4c5d 25be 9155 103e
00000220: 6f00 93bd 84a0 6a3d 679b 2dbe f958 1d3e
00000230: f489 d63c 0004 b3bd e422 09be ce8e 2abd
00000240: 110c 3abc d170 27bd c96b 88bd e1d2 cc3d
00000250: 5ed2 153e 250f 5e3d c920 093e e4ba 01be
00000260: 5043 113e 9a73 3a3e d6f1 cf3d 95ef 49bc
00000270: e5eb 733d 0359 89bd 4ab4 d1bd a229 bebd
00000280: e442 c63d b07a d7bd c14d 853d 6efa 31bc
00000290: eb44 aabd 7eed 393d f9da 453d 12da 1abe
000002a0: 9577 1bbe 2ae4 19bb ffb4 44bd cb82 4d3c
000002b0: 2b4f 263e ccc5 173e f0cf af3b e785 643d
000002c0: d336 903c 0688 fdbd 9ede 4a3b a0c4 79bd
000002d0: 03a4 ccbd 678a a5bd 454a 2dbd ea54 363d
000002e0: 16f6 bf3d 91dd 063d 680b 8e3d c262 0fbe
000002f0: 86a7 76bd 6ce3 1dbe 87e8 a13d 4a0c 85bd
00000300: 94c1 aebc 5421 c1bc 94d3 8d3d 87ad fcbd
00000310: 31a5 863d 2a85 283e 4e31 1bbe 104e f6bb
00000320: feb2 1ebe 534c 97bd 5747 13be e8c9 103e
00000330: eac2 fabd 64c1 043e 360d b93d 5536 0ebe
00000340: 9198 fcbd 7748 98bd 1dab aabc b1c5 493c
00000350: 0cfa 58bd 9d8f 08bd 0c4d 3abc 5143 253e
00000360: 016e 203c c5e4 1f3e ea40 183e d500 5f3d
00000370: c0b6 31be 4785 f03d c2b7 143e 9176 cc3d
00000380: e361 003e b57c 0fbd c6a4 0f3e be2a eebc
00000390: 0686 bc3b eec0 ff3d c85f 1d3d ae93 d8bd
000003a0: 7185 d63d 24af 7c3d 4018 923c 9565 0e3d
000003b0: 861c 51bd e2e0 81bd 8f21 1abe 68a5 f83d
000003c0: b47a 193e 5a4f b93d 5226 c63d afbc 07be
000003d0: 939c 353d c1d2 953d 35d9 c33c 6c4c 03be
000003e0: 6d87 2f3d b52f 2f3e 24bb 223e 02b0 b9bd
000003f0: 4ea7 103e 48f9 c03d 75d1 6abd 19c6 3d3c
0.16835962 0.14149205 -0.11992637 0.11804427 0.024285868 -0.10690072 0.023893263 -0.040193744
0.04435218 0.1632293 -0.08497644 -0.12802501 -0.1687746 0.1374583 0.13466378 -0.03815275
-0.037512884 0.002799842 0.096908055 -0.16627024 0.15275696 0.08585191 -0.03595292 0.17135802
0.12072021 0.025017004 -0.05797952 -0.1443024 0.14252445 -0.08529277 -0.15830089 -0.16352804
-0.020557243 -0.008306378 0.104281716 -0.0468471 0.04549216 -0.1687389 -0.085735895 0.17372027
0.017279884 0.033089686 0.15864857 0.055110317 0.029799668 0.09539856 -0.116035156 -0.031698495
0.06821634 -0.15256159 0.015350778 0.06528972 0.16187532 -0.0026474716 0.16590676 -0.12303122
-0.09552581 -0.07274385 0.04857382 0.14605026 -0.016990226 -0.03932703 -0.0022110944 0.0074933707
-0.15329115 -0.0680538 -0.09479489 -0.013096474 -0.0909521 0.14583737 -0.15551437 0.06327465
-0.061379 0.16295518 0.14631936 0.1426131 -0.084845304 -0.1454661 0.08937265 0.09567984
-0.0014915528 0.044645198 0.06080674 0.0141477445 -0.08368055 0.021446716 -0.04052175 0.037118297
-0.036836553 -0.02154447 0.053068556 -0.121101916 0.08425226 0.037405252 -0.07249479 -0.11982553
0.015259137 0.031340014 -0.14387389 -0.10313125 -0.06298304 0.15619746 0.08652553 -0.15881215
-0.034813643 0.011731503 0.037411492 0.10794861 0.008769557 0.012940827 0.1078658 0.09700334
0.08588718 0.15329024 0.002071042 0.002014519 -0.05948485 0.09122834 -0.0695417 -0.13160937
0.10333124 -0.03286466 -0.15058678 0.0048960815 -0.0893644 -0.14099924 0.16894686 -0.10090705
-0.11971502 -0.08166594 -0.044328593 -0.15751894 -0.038185332 -0.03917728 -0.16148871 0.14095141
-0.07177817 0.057281986 -0.16953813 0.15365972 0.026188828 -0.08740997 -0.13392216 -0.041640095
-0.011355416 -0.040879074 -0.066611834 0.100011595 0.1463103 0.05421366 0.13391413 -0.1266895
0.14185834 0.18208161 0.101535484 -0.012325187 0.05955114 -0.06706431 -0.102394655 -0.092852846
0.09680727 -0.10521448 0.06508971 -0.01086293 -0.08313926 0.045392506 0.04830453 -0.1512225
-0.15182336 -0.0023481944 -0.048024174 0.0125433905 0.16241138 0.14821547 0.0053653643 0.05579176
0.017604267 -0.1237946 0.0030955444 -0.06097853 -0.0999222 -0.08083039 -0.042307157 0.044514574
0.09373109 0.032926146 0.06935769 -0.14002517 -0.060218357 -0.15418786 0.07905679 -0.064964846
-0.02133254 -0.023575462 0.06925121 -0.12337785 0.065744765 0.16457048 -0.15155527 -0.00751663
-0.15497968 -0.073876046 -0.14382683 0.14139521 -0.12244208 0.12964398 0.09035723 -0.13887914
-0.12333787 -0.074356966 -0.020833546 0.0123152 -0.05297284 -0.033340085 -0.0113709085 0.1613896
0.009791852 0.15614612 0.14868513 0.054444153 -0.1735487 0.11744171 0.14523223 0.09983552
0.12537341 -0.03503104 0.140277 -0.029073115 0.0057532815 0.1248797 0.038421422 -0.10575043
0.10474671 0.061690465 0.017833829 0.034764845 -0.051052593 -0.06341721 -0.15051864 0.12140924
0.14988214 0.09048338 0.09675278 -0.13255571 0.044338774 0.07315589 0.023907283 -0.12822121
0.04285376 0.17108043 0.15891701 -0.09066774 0.14126322 0.094225466 -0.05732866 0.011582875

output.weight f4 [2, 300]
00000000: 133f c0ba bc4c 6c3c 1438 0b3d ed16 35bc
00000010: 70d2 38bc aa8e 123a 6d96 193d 2a29 9b3b
00000020: 2c18 03bc 4c70 ec3c 4739 43bc 25c1 5a3c
00000030: cdb5 ff3c 4757 063c c652 58bb dc7d ae3c
00000040: c404 fbbb a166 ba3c 65e1 ab3c ae0d 74bb
00000050: 02b1 653c 2706 18bb 0105 db3b 9e00 e53c
00000060: 88ee c83b 6b83 1fbc 8b1c 033c 86d1 6fbc
00000070: 19e5 d1ba de6a acbc 7aca 3e3c e0fc 433b
00000080: dc03 f4bb 862f 913c a173 2eba ea18 6c3c
00000090: 32f8 943c 6a84 573c 2ebf bf3c 5cbb 93bc
000000a0: ab57 4bbc 48ec cb3c df6e 5ebc be11 72bb
000000b0: 41e7 213c 3dc4 13bb 4303 143b 19d7 8c3c
000000c0: b8c6 ae3c bf78 a13b 741f ce3b 4995 f13b
000000d0: 9dd6 90ba f85e 623b 3cb1 2cbc b274 28bc
000000e0: 8520 073d cfe8 9a3a b1b7 fabb f41f 4fbb
000000f0: ef79 74bc 00ff 92bb bdde 1cbc f1ea 1ebb
00000100: 214c 26bc b0c0 0bbc 45ee 43bc 35dc 10bc
00000110: 5344 48bb 3632 623c 95a8 d23c 3f5a 8a3c
00000120: a640 953c d492 273b 2a66 babc bea2 47bc
00000130: 3552 113d 8909 4dbc 1ba2 943c 169c 093c
00000140: fbcf 903c 2bdd d03b c6d1 053d aa2b eaba
00000150: 6009 253c 39f6 b1bb f3f5 f0ba e1b7 0e3c
00000160: 129e 61bc 6d6e 233c e112 94bb a3a8 70bc
00000170: fc10 69bc 8e11 f53a d8ed d3b8 b69c 983b
00000180: f772 8ebc 9736 573c c0c4 2bbb c872 06bc
00000190: 6d37 33bb 9285 c43b 7b8a 183d d5f8 37ba
000001a0: ba95 8c3c 5bc9 283d dfd7 513c 8864 b0bb
000001b0: 3930 c6bb b635 2dbc a68c 9cbb 17df b33c
000001c0: f3d2 5f3c 4602 42bc 0d44 7b3b 668d ff39
000001d0: ae9d 8f3c a511 873c 9185 76bc 8d78 0e3d
000001e0: c770 be3b d656 bb3c d0de f93c 04be 303c
000001f0: 1733 103d 595d 41bc fadd 50bc 3cf9 033d
00000200: 146e a53b 7018 3b3c f4de 513c 4efc ae3a
00000210: 1fa7 7fbc 961e f5bb e5ed 15bb 549e 65bc
00000220: 6d98 47bb 6e68 e83b 6300 37bc f1a0 be3c
00000230: 298f 30bc 61c5 2cbc 9724 ee3b 8326 e9bb
00000240: 8057 983c c619 cf3c 48c7 343c 8b90 bfbc
00000250: cca2 41bc 4efc 57bc 8b13 d93c 65e1 82bc
00000260: 4119 42bc 10f3 71bc a3d6 343c 915d 70bc
00000270: 49c1 863c 8ce2 b1bb 5303 a0bc 62fd b139
00000280: 0a75 963c 079e 5ebc 681c 0eba fce7 8f3a
00000290: bc2e a83c 5733 3a3c c83e 313c 2cb8 fc3c
000002a0: 7c66 f4bb c7a7 cc3c 66f1 a43c 2310 0a3c
000002b0: 26d5 5dbb 9068 5e3a 0e34 97bc 3c27 23bc
000002c0: 7076 a7bc 8d94 c93c 7307 ad3c 3fb2 853c
000002d0: 6cb7 943c 50e2 d63b f401 493c d0ed 973b
000002e0: 9c4b 4bbb e0e9 d63c 12b9 bebc 0fef 1abc
000002f0: f47e 1c3d 67e3 2dbc 47fe 1fbc 598b dd3b
00000300: 3fd0 e03c c416 1b3d 8805 cf3c 5716 38bc
00000310: de36 903c 3ea3 6cbc 5399 b4bc 198b 68bc
00000320: f53b 323c da1c a8ba 222a 9b3c 0c24 b7bc
00000330: e143 d03b 26c6 9a3c 65ae 83bc 41ea bd3c
00000340: b7fa 19bc 6667 e7bc 9ee3 c9bb 16b6 f93c
00000350: c881 81bc a232 17bc 7da6 34bc d34f 47bc
00000360: d71a d0bb d0dd 9c3c a40d 063c 4bcb 993c
00000370: de4e 3aba 2e14 713c e14c 163c 5b81 3cbc
00000380: 9217 bf3c 28d8 19bc e3e8 8dbc ff57 62bc
00000390: b1c8 743a c6e0 013d 5f6f 413c 3439 35bc
000003a0: 8db7 73bb a998 8abb c5a9 5d3c 7b33 c93c
000003b0: f315 ce3b 459f a7bb dc5d 54bc 5272 1ebc
000003c0: 0406 863b 57ab de3c 86da 873a 7bd7 013d
000003d0: e944 f63b c642 9abb 1a93 93bb 3b0f b1bb
000003e0: a65a f73c bda1 d03b afcf 803b 2b40 9cbc
000003f0: 16c3 41bc af8d 57bc 7f5e 49bc 4029 0abc
-0.0014667235 0.014422592 0.033989027 -0.011052829 -0.011280641 0.00055907166 0.037496973 0.0047351317
-0.0080013685 0.028862141 -0.011915511 0.013351713 0.031214619 0.0081995195 -0.0033008321 0.021300249
-0.00766048 0.022754015 0.0209815 -0.00372396 0.014019253 -0.0023197026 0.006683946 0.027954396
0.0061319508 -0.009735922 0.008002411 -0.014637357 -0.0016013711 -0.021047052 0.011644954 0.0029905364
-0.007446749 0.017722856 -0.00066548033 0.014410237 0.018184755 0.013154129 0.023406591 -0.018033676
-0.012411038 0.024892941 -0.013576238 -0.0036936845 0.009881795 -0.0022547387 0.0022584952 0.01719241
0.02133499 0.004927724 0.0062903706 0.0073725325 -0.0011050288 0.003454147 -0.010540303 -0.010281729
0.032989997 0.001181865 -0.0076512923 -0.003160474 -0.014921649 -0.004485965 -0.009574589 -0.0024248923
-0.0101499865 -0.008529827 -0.011958663 -0.008841564 -0.0030558303 0.0138059165 0.025715152 0.016888736
0.018219303 0.0025569694 -0.022753794 -0.012184797 0.03547879 -0.01251448 0.018143704 0.00839903
0.017677298 0.0063740215 0.03267076 -0.0017865796 0.010073036 -0.0054309634 -0.0018383845 0.008710832
-0.013770597 0.009975058 -0.004518852 -0.014688644 -0.014225241 0.0018697248 -0.00010105566 0.0046573533
-0.017388804 0.013135574 -0.0026209801 -0.008206077 -0.0027346269 0.005997368 0.03724144 -0.0007017975
0.017161239 0.041207653 0.012807815 -0.005383078 -0.006048229 -0.010571888 -0.004777509 0.021956963
0.013661134 -0.011841362 0.0038340122 0.0004874274 0.017531242 0.016487906 -0.015046493 0.034782935
0.005811784 0.022868555 0.030501753 0.010787491 0.035204973 -0.011802041 -0.012748236 0.03222011
0.0050485227 0.011419401 0.012809504 0.0013350339 -0.01560381 -0.007480453 -0.0022877392 -0.014014799
-0.0030455843 0.007092527 -0.011169526 0.023270102 -0.01077632 -0.010545106 0.0072675454 -0.0071151867
0.01859641 0.025280844 0.0110338405 -0.023384353 -0.011818599 -0.013182713 0.026498577 -0.015976617
-0.011846841 -0.014767423 0.0110375015 -0.0146707455 0.016449587 -0.005428618 -0.019532835 0.00033948856
0.018366355 -0.013587481 -0.0005421103 0.0010979171 0.020530097 0.011364779 0.010818191 0.030849539
-0.007458506 0.024982346 0.020134639 0.008426699 -0.003384897 0.0008484209 -0.018457439 -0.009958085
-0.020442218 0.024606967 0.021121716 0.016320346 0.018153869 0.0065577403 0.012268532 0.0046365038
-0.0031020408 0.026234567 -0.023281608 -0.00945641 0.03820701 -0.010613299 -0.009765214 0.0067609963
0.02744305 0.037863508 0.025271192 -0.011235795 0.017604288 -0.014443217 -0.022045767 -0.01419332
0.010878553 -0.0012825981 0.018940989 -0.022356056 0.006355748 0.018893313 -0.016074369 0.02318299
-0.009398154 -0.028247546 -0.0061611673 0.030482333 -0.015808955 -0.00922838 -0.011026022 -0.012165028
-0.006350856 0.019148737 0.008181963 0.018773695 -0.0007107089 0.014714284 0.009173603 -0.01150545
0.023326669 -0.009389915 -0.017322963 -0.013814925 0.00093377667 0.0317085 0.011806338 -0.011061002
-0.0037188262 -0.0042296243 0.013529246 0.02456068 0.0062892376 -0.005115422 -0.012961831 -0.009670811
0.0040900726 0.02718131 0.0010364808 0.03169964 0.007515539 -0.004707667 -0.00450362 -0.005403427
0.030194592 0.006366937 0.003931008 -0.019073566 -0.011826297 -0.013156339 -0.012290596 -0.008432686

output.bias f4 [2]
00000000: a747 8b3d 8446 063c
0.06800776 0.008195523

hidden.0.weight f4 [300, 300]
00000000: 1162 8bbc a83f 9cbb 31a1 49bb 8dfd 2cbd
00000010: 4d1e 4ebc c347 bc3b 6e21 813c cfa4 053d
00000020: 0c1e 0cbc b1de 42bd f152 423d faad 5cbd
00000030: 348a 07bd 960b 043d 26df 65bc f157 e93c
00000040: 022c 07bc 34aa 703c 63cf fb3c a340 bdbb
00000050: 5323 cdbb 5439 33bd ee55 b13c df6c f3bc
00000060: 35ac 61bc 274b 203c 4914 c03c e9ee e6bb
00000070: 3483 38bd 1991 55bd bec3 a33c 9212 54bb
00000080: 8917 91bc b38a 5cbd 532d 4f3c be87 a5bc
00000090: 642c 2ebc d3d9 58bd d04b 3b3c d662 593d
000000a0: 3100 873d bfee 323d feeb 54bb c777 63bc
000000b0: d543 213c 4b07 643d 2186 2bbd 026c b9bb
000000c0: 481f 30bc 6f0e 5f3d 9b2b 68bb 1c3c 48bd
000000d0: d1c0 1c3c 58c2 ccbc 3136 ef3c 82cf 4f3d
000000e0: dbaf e7bc f235 ca3c 17f3 11bc 5922 2a3d
000000f0: e755 07bd a262 10bd a67a 493d 5eef de3c
00000100: aca9 69bd 759c 363d b01d 633c ac60 173d
00000110: 1cb0 4ebd 4aa2 263d 29dc 513d c623 9dbb
00000120: 9a9a debb 0248 92bc 25cf 4e3d e31b b8bb
00000130: 2f48 1e3c 1f2d 3d3c a49e 633c d6cc 273d
00000140: b2c0 4abd 8f67 b1bc 8c6f 30bd 5946 2dbd
00000150: 0734 f7bc b89a 1f3b f856 c93c 1e56 cf3c
00000160: 3bdc 9a3c cfc5 2a3d ccf3 a03c db53 14bc
00000170: 5d26 9bbc 0536 9ebc 17ed 3e3c 5fda 85bc
00000180: 68f0 4d3d df50 3abd 0499 0fbd ceeb adbb
00000190: df00 c23b c5bd eebc 703d 183d 5b5d 96bc
000001a0: ba50 fbbc c5c8 e2bc c322 31bd 1586 11bd
000001b0: 86ec 2cbc bc49 10bc adfb 84bc bb59 b2bc
000001c0: 9d16 6bbd e1e7 adbc 3845 10bd b16d 92bb
000001d0: 91c0 543d 494b 913d 9ffc 4c3c bda1 d8bc
000001e0: a779 c93b d278 a53c 8908 27bd ce02 8f3c
000001f0: 744a 89bd f5c1 9cbc f09e 61bd 617a e73c
00000200: 67b4 3ebd 4d65 2fbd 0b6d 32bc fffc 853c
00000210: 849a 72bb ab24 5a3d dba1 3abd ee34 023d
00000220: 2aa5 0f3d d8c1 223b bcc0 c2bc f72f a7bc
00000230: 9c77 e2bb 31ad 473d 358b 633c f301 75bc
00000240: a576 88bd 7371 403d 7c67 8dbc 25ce 163d
00000250: 04bd 9ebc f834 0dbd a65f 25bd cb94 c63c
00000260: 0094 193d 29f0 403c 8c08 2dbd df10 143d
00000270: 74eb 3c3d 05c1 533d d9c9 ac3c 7945 2e3b
00000280: 401f 91bc 0a9d a03c fb7a bdbc 3a58 35bd
00000290: f437 fb3c 6b76 79bd ee4b 0f3d 2511 48bc
000002a0: 56d3 21bc c577 bf3b 046f b3bc 992a 0dbd
000002b0: 3434 4b3d 4066 383c 4cea c9bc 9516 0cbd
000002c0: e8f8 ff3c 2197 a1bd d09f 2e3d 34f0 54bd
000002d0: 7bb2 63bd 1c3d 5cbc ed5d 10bb a3fd 5dbd
000002e0: fab2 e6bb 3fee 673d 989e df3c 9e20 a83c
000002f0: ddcb 0a3c 02c9 5abc 90c0 cdbc 270e db3c
00000300: 8592 34bd ef3e a8bc 2dae 35bd 0180 6dbc
00000310: 5a74 2abd acef 97bb e3a6 85bc 1c09 6a3d
00000320: 0e66 413d 731f 4d3c 63bc 0b3d f66f cc3c
00000330: 04f5 0dbd 2c87 45bd fa54 de3c 6077 223d
00000340: acee efbb e877 633d c66c d03c a3c2 7d3b
00000350: 5cdd 873d d6c0 4cbd 8257 b13c 22f1 07bc
00000360: 6f2e 00bd 95d6 3a3c 7074 47bd 722a 1dbc
00000370: 31a1 fbbc 8a0b 903c 7f52 833b d0d4 e43a
00000380: 6d33 bdbb 0a95 13bb c5f7 2abd 63ab 01bd
00000390: fed5 30bd fd8f 5a3d dbf9 673d 1af1 79bc
000003a0: 658f a33c 4d34 27bd d8f6 473d 4c06 a2bc
000003b0: 5cec a73c 8130 1a3c 51e9 64bd 9e6d cc3c
000003c0: 5def a83c 94d3 8abd 8412 07bc 7687 243d
000003d0: 63da 4dbd 2e3e d73c 1e16 d73c 017f 04bd
000003e0: 0c1f 053d 01a9 ca3b 0b7d 903d c0a4 c1bc
000003f0: 9c7f af3b cc27 e4bc d470 223c d805 1a3c
-0.017014535 -0.0047683306 -0.0030766244 -0.042233992 -0.012580466 0.0057458594 0.01576301 0.032627877
-0.008552086 -0.047575656 0.04744238 -0.053876854 -0.033090785 0.03223761 -0.0140302535 0.028484317
-0.008250238 0.014689017 0.030738538 -0.0057755276 -0.0062603145 -0.043755844 0.02164742 -0.029715
-0.0137739675 0.009783543 0.023447173 -0.0070475233 -0.045047 -0.05214033 0.019990798 -0.0032359702
-0.017711418 -0.05384321 0.0126450835 -0.020206328 -0.010630701 -0.05294211 0.011431649 0.053072773
0.065918334 0.043684717 -0.0032489295 -0.013883538 0.009842833 0.055671018 -0.041875962 -0.0056586275
-0.0107496455 0.054457124 -0.0035426382 -0.04888545 0.009567455 -0.024995014 0.029200645 0.050735004
-0.028282097 0.024683926 -0.008908055 0.041536663 -0.033040907 -0.035250314 0.049189232 0.027213749
-0.057046577 0.044582803 0.0138620585 0.036957428 -0.05046092 0.040682115 0.05123535 -0.0047955243
-0.0067933323 -0.017856602 0.050490517 -0.0056185587 0.009660765 0.011546402 0.013892803 0.04096683
-0.049500175 -0.021655826 -0.04307513 -0.042303417 -0.030176176 0.0024353694 0.024577603 0.025309619
0.018903842 0.04169255 0.019647501 -0.009053196 -0.018939191 -0.019312868 0.011653206 -0.016339479
0.050278097 -0.04548728 -0.035058036 -0.005307651 0.005920514 -0.029143224 0.037167966 -0.018355062
-0.030678142 -0.027683625 -0.043246042 -0.03552826 -0.010554438 -0.008806642 -0.01623329 -0.021771302
-0.057394613 -0.021228733 -0.035222262 -0.0044686426 0.051941458 0.07094438 0.012511401 -0.02644431
0.0061485353 0.020199213 -0.040779624 0.017457392 -0.06703654 -0.019135455 -0.055083215 0.028256597
-0.046558764 -0.042821217 -0.010890256 0.01635599 -0.0037018368 0.053257626 -0.045564514 0.03178876
0.035069622 0.0024834778 -0.023773544 -0.020408614 -0.006911231 0.048749153 0.01388817 -0.014954078
-0.06663255 0.046983194 -0.01726126 0.03681769 -0.019377239 -0.034474343 -0.04037442 0.024240872
0.03749466 0.011776009 -0.04224448 0.036148902 0.046122983 0.05169775 0.021092342 0.0026591702
-0.017715096 0.019606132 -0.02312993 -0.044273593 0.030666329 -0.060903948 0.03498452 -0.012211119
-0.009877047 0.005843135 -0.021903522 -0.034464452 0.04961033 0.011254847 -0.024647854 -0.034201223
0.031246617 -0.07890154 0.042632878 -0.051986888 -0.055590134 -0.013442304 -0.002202864 -0.054196965
-0.0070403786 0.056623694 0.027297303 0.020523366 0.008471456 -0.013353588 -0.025116235 0.026740147
-0.044085044 -0.020537822 -0.04435556 -0.014495851 -0.041614868 -0.0046367254 -0.01631493 0.057137594
0.047216468 0.012519705 0.034115206 0.02495573 -0.034657493 -0.048224613 0.02714013 0.039664626
-0.007322153 0.055534273 0.025442492 0.003872075 0.06634018 -0.04998859 0.021648172 -0.008297237
-0.031294283 0.011403699 -0.048695028 -0.009592639 -0.03071651 0.017583627 0.004007637 0.0017458443
-0.0057739527 -0.0022519254 -0.041740198 -0.031657588 -0.04317283 0.053359974 0.056634765 -0.015255237
0.019965837 -0.040821362 0.048819393 -0.019778393 0.020498447 0.009410978 -0.05588657 0.024954613
0.02062195 -0.067786366 -0.008244161 0.040168248 -0.050257098 0.026274767 0.026255663 -0.032347683
0.03250031 0.0061846976 0.070551 -0.02363813 0.0053557884 -0.027851008 0.009914596 0.009400807

hidden.0.bias f4 [300]
00000000: d60f 693d f6d4 543c c5da 2fbd c4ac 273c
00000010: 5084 b63a 1218 c9bc 0b8f 64bd 321a 583d
00000020: f0c2 863b cf2e 103b c45a d9bc 619f 453c
00000030: c1e9 033d 7346 253a 8251 a1bc 0655 0ebd
00000040: a7d8 143d 5368 d73c 9ec8 0b3d 42d4 583c
00000050: af10 09bd da00 a4bb 77ce c43c ff7e c5bc
00000060: 1044 69bd 9cb7 033c 13b0 edbc 770e 773c
00000070: 9ac4 273d 2c6a 61bd 2aba b43c 7ef7 23bd
00000080: 79b2 ef3c 89ba f6bc 91d2 023d d7d8 a33c
00000090: 6dcd f23c 4047 a13b 98d4 27bd 179b dcbc
000000a0: bc82 e7bc 7cba 48bc b035 5ebd f11a 43bd
000000b0: 8485 29bd 48ba f3bc 6265 43bd f88b 23bd
000000c0: 1a08 07bd 6e3f 183d 7af1 8a3c 1d33 d8bc
000000d0: 39eb 55bc 69e2 193c a06a 2bbd 2503 50bd
000000e0: 81ed ce3c 5382 2dbd 97b6 3d3c f2f9 b03b
000000f0: 7165 ca3c d68f 49bd a7d6 2cbd 0634 e43c
00000100: f311 49bd 68b2 d23b 6f8b 3cbc 46d3 233d
00000110: 54a0 693c 408d 2c3d aff8 99bc 4eab eb3c
00000120: f212 883c d4de 2dbd 4e6d 253d 4128 2f3d
00000130: d0c9 ae3c 32ac 0e3d 2b88 8c3c b388 7bbd
00000140: 1bea 003d f74d 0b3b a37c d33c 7c6e cebb
00000150: 8d2c f9bc 696a a73c 0679 0c3d 408b 2cbd
00000160: 2acb 82bc d2f4 c63c cf7f f83c c4cc 033a
00000170: 11bb 5a3c 8c64 193d ecdb 963a 5484 27bd
00000180: b9e4 a7b6 8ddf af3c d840 20bd 3320 25ba
00000190: d578 2c3d 7839 c43c c035 36bd 6993 96bc
000001a0: 9820 12bd 3ee1 3fbd c774 fdba 68de 09bd
000001b0: 400d b3bc b32e b2bc 4d6a 243d cad3 e9bc
000001c0: c5c0 123d dd4d 263d 7a2e 36bd da30 42bd
000001d0: 8fd6 64bc 9130 e6bc 5726 d0bb 7c49 ea3c
000001e0: 8e59 b13c a1c8 70bc 0b6c 5c3c b84c b33c
000001f0: 7a4e 58bd e519 a9bb 47f1 01bd be63 5d3c
00000200: 79d5 c0bb 55bf c8bc 49b9 2e38 3a36 893b
00000210: c548 a7bc c25d 35bc f62e c4bc b4a9 fc38
00000220: b7df 213d 3fd2 283c de23 c93a 02e3 a3b9
00000230: 44d2 fbbc fbb4 0bbd a8db aebc b504 bbbc
00000240: e420 843c 2adb 783c 8a97 d7bb f139 51bc
00000250: e5de 6139 6dad c83b b8d7 29bc 9729 ba3c
00000260: 5d8c 973c 6ea2 053c 434f f93b eb17 3ebd
00000270: 00f2 2dbd c03d 963c 6e4e fbbc 86b9 113d
00000280: 561b 6a3c 6e38 2c3c f74d af3c 380b 543d
00000290: cfb7 51bd f84a e1bc b6c8 2f3d 2d2c 0fbd
000002a0: f506 183d 52e0 ca3c ace8 303d f889 81bc
000002b0: 6a80 3c3d ccce 143d 7d00 2f3d 61bb a6bc
000002c0: 79cc 213d 792a 6abd ccc0 4bbd 1372 4d3d
000002d0: 1216 0a3d 2cbc 21bd 3d67 36bc 8f02 31bd
000002e0: fa5a 4cbd 4cd7 f3bc efd4 353d e0e6 a03c
000002f0: 36b4 22bb 3712 4a3d 707c 383b fa4e 0cbc
00000300: bd4c febc 2f12 073d 2980 91bc 624a a7bc
00000310: 1a7d 24bc 809e 2e3b c958 913c 512a 7838
00000320: 32a2 963b af32 6fbd 2b63 4fbd bc9c 50bd
00000330: 97d1 c13c 29d6 56bd df9b 07bd 2313 11bd
00000340: 845b 43bd c85d 3bbd 80ab a7bb a2bc e6bc
00000350: 86d7 433c fb83 3639 4e66 5cbc 87d7 d4bb
00000360: 35bc b93c 5795 4f3d 0e97 63bd 1bf1 463d
00000370: 987c fcbb abe5 133d 21a1 39bd 8fe4 563d
00000380: 5519 d93c 3552 a1bb de35 533d 26e0 f0bc
00000390: 1ec6 003d 4bde 5d3d 5ff5 7fbc d98c 3b3c
000003a0: 6607 d5bc 9155 1cbd b969 c7bc e76e 353c
000003b0: 2546 babc ad76 37ba 812d 48bd 7544 2bbd
000003c0: 383c 51bd dac3 183d 76bb aa3c f8c6 e4bc
000003d0: 0f98 5abd 8391 02bc f79c c2bc 52b5 35bd
000003e0: 7790 41bd 78ca ea3a 7c72 51bd cf54 dd3c
000003f0: 6e0c 1cbc 36ff 3dbb 72e7 433c 615a 053d
0.056899868 0.012990227 -0.042933244 0.010234062 0.001392493 -0.02454761 -0.05580048 0.052759357
0.004112594 0.0022000556 -0.026532538 0.012061925 0.032205347 0.0006304748 -0.019692186 -0.034749053
0.03633943 0.026294863 0.03412687 0.0132342 -0.033463176 -0.0050049843 0.024024231 -0.024108408
-0.056949675 0.008039381 -0.029014623 0.015079132 0.04095898 -0.055032894 0.022061426 -0.04003095
0.029259907 -0.030118244 0.031939093 0.020000858 0.02963897 0.0049218237 -0.04097423 -0.026929421
-0.028260581 -0.012251493 -0.05425042 -0.047633115 -0.041387096 -0.029751912 -0.047704108 -0.039928406
-0.03296671 0.037169866 0.016960848 -0.02639156 -0.01305657 0.009392359 -0.041849732 -0.05078425
0.025259735 -0.042360615 0.011579177 0.0054008896 0.024706574 -0.04920944 -0.042196896 0.027856838
-0.049089383 0.006429959 -0.011507853 0.039996408 0.014259417 0.042126894 -0.01879534 0.028768208
0.016610596 -0.042448834 0.040387444 0.042763 0.021336466 0.034832187 0.017154774 -0.061409663
0.03147326 0.0021256187 0.025816267 -0.006299792 -0.030416751 0.020436483 0.034295104 -0.042124987
-0.015966017 0.024286661 0.030334381 0.0005027766 0.013350264 0.037449405 0.0011509634 -0.040897682
-5.0036147e-06 0.021468902 -0.03912434 -0.00062990485 0.042107422 0.023953184 -0.044484854 -0.018380838
-0.035675615 -0.046845667 -0.001933717 -0.03365937 -0.021856904 -0.021750784 0.04014044 -0.028543372
0.03582837 0.0406016 -0.044477917 -0.04740987 -0.01396717 -0.02809933 -0.0063522267 0.028599493
0.021649148 -0.014696271 0.013453494 0.021887168 -0.052809216 -0.0051605576 -0.03172424 0.01351255
-0.005884823 -0.024505297 4.1657393e-05 0.0041873725 -0.020420441 -0.011069717 -0.023948174 0.00012047906
0.03951999 0.010304033 0.0015345772 -0.00031258917 -0.03073991 -0.034108143 -0.021344975 -0.022829393
0.016128965 0.015188972 -0.006579344 -0.012770162 0.00021540707 0.0061241896 -0.010366373 0.02272491
0.018499548 0.008156402 0.0076083257 -0.04640953 -0.042467117 0.018339992 -0.030677047 0.03557732
0.014288744 0.010511501 0.021399481 0.05176851 -0.051200684 -0.027501568 0.042916022 -0.03495424
0.03711601 0.024765167 0.043190643 -0.015812859 0.046020903 0.03633003 0.042725075 -0.020353021
0.03950164 -0.05716941 -0.049744412 0.050157618 0.033712454 -0.039486095 -0.011133012 -0.04321533
-0.04989145 -0.029765747 0.044392522 0.01964134 -0.0024826652 0.049333777 0.0028150342 -0.008563751
-0.031042451 0.032976326 -0.017761307 -0.02042121 -0.010039592 0.0026644766 0.017742531 5.9167218e-05
0.004596972 -0.058397945 -0.050631683 -0.050930724 0.02365951 -0.052450333 -0.033107635 -0.03541864
-0.047694698 -0.045743734 -0.00511688 -0.028166119 0.01195324 0.00017406039 -0.013452126 -0.0064954194
0.022672752 0.05067953 -0.05556398 0.04856978 -0.0077052824 0.0361077 -0.04531968 0.052464064
0.026501337 -0.00492313 0.051565044 -0.029403757 0.03143894 0.054167073 -0.015622466 0.011447155
-0.026004504 -0.03816754 -0.024342405 0.011073804 -0.022738526 -0.000699858 -0.04887152 -0.041813333
-0.05108282 0.037296154 0.020841341 -0.027926907 -0.05336767 -0.007969263 -0.023756487 -0.044362374
-0.047256913 0.0017913124 -0.05113457 0.027017979 -0.009524448 -0.002899123 0.011957036 0.032556895

hidden.1.weight f4 [300, 300]
00000000: 2295 22bd 49f1 4cbd 7e25 d9bb 692e 0bbc
00000010: 66ba ffbc f128 78bb 035e 1bbd d45d 9c3d
00000020: 0c60 973c 02c0 403a 95bf 923d 0a38 9dbc
00000030: 80a3 9a3d 6c31 96bd d229 84bb 8645 be3c
00000040: f7f8 6e3d b373 c6bd f6fc 4d3b c2a6 0ebd
00000050: 8828 cc3c 02fa 95bd 084d ce3b c9ef 1e3d
00000060: 20ea 37bc d59f b9bb da2d c73c c47c 53bd
00000070: d73b 74bd af3e 90bd 1ebf 12bd 1a66 ffbc
00000080: 14e6 a23d e396 18bd 032c 863d 8164 8f3c
00000090: aa92 b63c 8a55 06bd f00a 40bc e287 5abd
000000a0: cfec d0bc 324c 7f3d 3d0f 9dbd 6e49 0c3c
000000b0: 3fb1 a4bc 0950 2bbd b189 55bd 5739 cf3b
000000c0: 210f 82bc 9003 9ebc a67d 3dbd f1f8 d9bc
000000d0: b88c 35bd 0ac3 4fbd ba06 9d3c e9c2 a5bd
000000e0: a181 26bd a506 aebd cadc 69bd aebd 36bd
000000f0: 37fc a5bb 802a 9c3c 710e 103c 7214 52bd
00000100: a9c1 14bc 222c 9bbc 0b78 2fbd 8cfd 01bd
00000110: c80e 65bd 4b20 b53d 8ccd 2dbd 16e1 673d
00000120: 611c 33bc 6153 b2bb a27b b7bc 363d d23c
00000130: 4594 1bbd 5088 8ebc 5ed1 043d 519d d3bc
00000140: 1112 d23c d8c6 2dbd c0cd c8bc 4483 1e3d
00000150: 9474 8cbc ac43 20bd 32e8 183d 18d5 3d3d
00000160: 292f 9d3b e2bd 0c3d 157d 1c3d c6f1 cebc
00000170: 2e68 c6bc a30f 38bd c668 593a 591a 87bc
00000180: 79dc 9fba 9375 3d3c 7abd 813c 6d99 f5bc
00000190: b638 12bd 9f0f ee3a 9e01 86bc 630a 8c3b
000001a0: 02d9 953c 4318 9ebd 0a9a 2bbd 1985 30bb
000001b0: 73aa ee3c 01fa 9b3d f7de 473d 6fde a4bc
000001c0: 7c5f 563d 52e6 5ebc a06d b9bd e9d1 a63c
000001d0: 6ddf 753d 97fe 273a dee4 14bd 4715 55bc
000001e0: 0ac5 46bc d16c b9bc 99b9 38bd 3f12 b33c
000001f0: ca10 32bd 66e8 453c 355c b33c 9a4b e9bb
00000200: 5284 a93c 145e 4abc 20c2 85bd 2ad0 b3bc
00000210: ab15 a2bc 53d7 443d 962b 043d b1e6 953c
00000220: db0a 423d ac45 7bbc 6872 d3bb 6c5a b8bb
00000230: 059f 80bd 975b a63c 8baa cabb 1902 6d3d
00000240: afb8 86bc cf94 b839 5dbf 48bc 6d04 60bd
00000250: 0740 133d c450 a8bc c432 483d 5419 6e3d
00000260: 0285 c73c 5dc9 2bbc 59fd 18bd e49c aebd
00000270: 34c6 323d 2a65 083d 3217 783d fe26 813d
00000280: 4b1c 0e3c dbcf 4cbd 0abe e33c bee3 8639
00000290: 1110 d33c e460 a9bd 8625 47bd e581 bd3c
000002a0: e240 3ebd 4a70 41bd 6009 f8bc ee54 393d
000002b0: 95ab 39bd 5d48 793d 451c e2bc 92d0 eabc
000002c0: fe77 4cbc fefc a7bc ac25 773c e0a1 8c3c
000002d0: 148a c53b 43fa e83c 22e7 15bd 9e83 43bd
000002e0: b44e 46bd af83 20bd 2f54 b5bc 3619 dd3a
000002f0: 4e86 1abd e9d4 e53b c9fe d9bc 82c4 16bc
00000300: 1fa8 dabc ee45 1d3d b5be 00bd 9fad a73d
00000310: c077 b53c 8694 be3c a8e2 bcbc e3f5 babc
00000320: 7648 41bc 1fec 2f3d 89fe 84bc 94c8 e03c
00000330: 0df8 7cbd b796 023c d3df 813d c8f5 b9bb
00000340: f067 6e3d c605 ed3c 4f70 29bd c987 b0bc
00000350: a4e1 bebc 1670 aa3c 149f 9bbd 6e14 eebb
00000360: c5fe 1a3d 7db2 93bc cf46 25bd 094c 123d
00000370: 4b0b 2f3d 3098 cdbc 9ac1 86bc b92c 4f3d
00000380: d930 de3c d654 22bd 0571 55bd 53a6 c73c
00000390: 56aa 4b3b 7921 37ba b728 0fbc 0b19 4c3c
000003a0: b611 573c 110e 903c e49a 17bd 23e2 6c3d
000003b0: 8d10 983b daa0 cb3c 8fa7 d5bc 4e14 b03a
000003c0: d176 04bd b92c e5bc 7392 bfbc 29b3 48bd
000003d0: 67f7 183c ca9a beb9 7cba 27bc c7b2 cb3c
000003e0: 6983 f4bc 3d65 8bbc dc6b 52bd 3a1d ccbc
000003f0: e098 dabc f9cb 41bc 4c0b 493b ab69 d7bc
-0.039693005 -0.050034795 -0.006626784 -0.008494952 -0.031216811 -0.00378662 -0.037931453 0.07635084
0.018478416 0.000735283 0.071654476 -0.01919176 0.075507164 -0.07333645 -0.0040333057 0.02322651
0.0583429 -0.096900366 0.0031431294 -0.034827 0.02492167 -0.07323076 0.006295804 0.038802896
-0.011225253 -0.0056648054 0.024313856 -0.051632658 -0.05962738 -0.07043206 -0.035826795 -0.031176616
0.0795404 -0.03725327 0.06551363 0.017503979 0.022286732 -0.03279642 -0.011721358 -0.053352244
-0.025503544 0.062328525 -0.07668922 0.008562429 -0.020104049 -0.041824374 -0.052133266 0.006323974
-0.015876355 -0.019288808 -0.046262406 -0.026607962 -0.044323653 -0.050723113 0.019168247 -0.08093817
-0.040650968 -0.08497361 -0.057095326 -0.044614486 -0.0050654667 0.019063234 0.008792506 -0.05128903
-0.009079375 -0.018941943 -0.04283909 -0.03173594 -0.0559223 0.0884405 -0.042432353 0.056611143
-0.010932059 -0.0054420684 -0.02239782 0.025663953 -0.037983198 -0.017398983 0.03242623 -0.02583185
0.02564338 -0.04242596 -0.024512172 0.038699403 -0.017145433 -0.039127037 0.037330814 0.0463458
0.0047968817 0.034360774 0.038205225 -0.025261771 -0.024219599 -0.044936787 0.00082935055 -0.016492056
-0.0012196443 0.011563676 0.01583742 -0.029980386 -0.035698615 0.0018162614 -0.016358193 0.004273699
0.018291954 -0.07719471 -0.04189495 -0.00269348 0.02913401 0.07616044 0.04879662 -0.020125596
0.052337155 -0.013604717 -0.090541124 0.020363765 0.06002753 0.0006408481 -0.036351077 -0.013005561
-0.012131939 -0.022634896 -0.045098875 0.021859286 -0.043473043 0.012079334 0.021894554 -0.007119608
0.020692978 -0.012351532 -0.06531167 -0.021949846 -0.019785723 0.04805691 0.03226813 0.018298479
0.047373634 -0.015336435 -0.0064528473 -0.0056260135 -0.062803306 0.020307345 -0.006184881 0.05786333
-0.016445486 0.00035206086 -0.012252656 -0.05469172 0.035949733 -0.020546325 0.04887654 0.058129624
0.024355415 -0.0104850205 -0.037350986 -0.08526018 0.043646052 0.033299603 0.060568996 0.06306265
0.008673738 -0.050002914 0.027800579 0.00025728153 0.025764497 -0.082704335 -0.04861977 0.023133228
-0.046448596 -0.047226228 -0.030277908 0.04524701 -0.04532965 0.060860027 -0.02760137 -0.028663907
-0.01247978 -0.020506378 0.015084665 0.017167032 0.006028423 0.028439647 -0.03659738 -0.04773294
-0.0484149 -0.039188083 -0.022134868 0.0016868475 -0.03772574 0.0070139063 -0.026610749 -0.009202125
-0.026691495 0.03839677 -0.031431872 0.081874125 0.022151828 0.02326418 -0.023057297 -0.022822326
-0.011797061 0.042949792 -0.016234653 0.027439393 -0.061759997 0.0079705035 0.06341519 -0.0056750514
0.05820459 0.028933417 -0.04136687 -0.021549122 -0.023300953 0.0208054 -0.07598701 -0.007265619
0.037840623 -0.018029446 -0.04035073 0.035717044 0.04273538 -0.025096983 -0.016449738 0.05057976
0.027122902 -0.039631687 -0.052109737 0.024371302 0.003107687 -0.0006985884 -0.0087377345 0.012457143
0.013126781 0.017584832 -0.03701295 0.05783285 0.004640645 0.024856973 -0.026080875 0.0013433786
-0.032339875 -0.027975427 -0.023385262 -0.048998985 0.009336329 -0.0003635495 -0.010237332 0.024865521
-0.029847817 -0.017016048 -0.051372394 -0.02491628 -0.026684225 -0.011828416 0.00306769 -0.026295504

hidden.1.bias f4 [300]
00000000: 52c2 c63c 8caf 3d3d 9751 75bd bed9 0938
00000010: ddcd 97ba 2004 57bc e9f2 9ebc 30fc 8a3c
00000020: 78f4 39bd 8e8b e13b 254e 3fbc dffd 00bd
00000030: fc9d 363d 02f4 0d3d 5125 c8bd 1b55 e3bc
00000040: 9492 14bc 1c70 953b 1431 01bb 3c19 a13c
00000050: c1ae 373d 404f 60bd 5351 56bd fcc7 4cbc
00000060: 8d7d 3dbc bf80 b03c e8e4 2a3c 69d2 50bc
00000070: 7343 703c 4bb1 01bd 5ab4 053d afdd 7bbd
00000080: e19d 4e3d 5f6b 1bbd 484c 6dbd 5d94 3bbc
00000090: 562d 48bd 7aee c0bc fb43 81bc 66ce 2cbd
000000a0: 7392 2a3c ffa7 a43c 8a32 7fbc ecaa 22bc
000000b0: c801 983c a455 123c a20f 55bd 8bb9 a53b
000000c0: ef6f 16bb b25f aebc 65c3 7fbc 3d67 53bd
000000d0: 6b6a 54bc 77ff b23c 84b7 9bbc a9f6 ff3c
000000e0: 332b 0fbc 0c90 88bc cae2 4e3d 0ee3 913d
000000f0: 66cb 0fbd 4f5e 2b3c d222 243d dcdc 503d
00000100: 2ec7 433c 0b2f 27bd 2748 493b 738b 14bc
00000110: a2f8 bc3c c180 16bd c261 adbc d000 95bd
00000120: eb5c b2bc e51a f5bc 6a42 29bd 8ff4 853c
00000130: b440 62bd 399b 19bd 68ef 54bd e30e 18bd
00000140: 1100 a7bc d722 3a3b bbd8 36bd bf8c b1bd
00000150: cf51 35bd 9c89 163d d569 553d 57cd 8fbd
00000160: a434 62bc ce09 8e3c 8ce7 0cbc 31d0 223d
00000170: 55df 6b3d fa1f 0eb6 4ca0 eabc d105 16bd
00000180: 823b 283d 0c8b 0b3d 2cc8 733d fd29 9abc
00000190: 5414 8fbb 1b11 1f3d 9d35 83bd 279a 4cbc
000001a0: 8a32 9dbd c75a d23c 066f 68bd 85bb 8abd
000001b0: f864 613d 8f67 f9bb d788 85bd d00d 4c3d
000001c0: e643 20ba 4f17 3e3d 7660 b1bc 72ee 123c
000001d0: 5a9f 90bc 57af 42bd 74d0 4c3d d90f 2cbd
000001e0: a2e5 a5bb 30bf 37bd f204 81bd 85ee dcbc
000001f0: f787 be3c 115d 73bd 874e 633c f3b6 c93c
00000200: cf5b 373d 0f02 18bc c4ed a8bb 7097 5dbd
00000210: b0fb 4e3c 4f2d d93c ea6a b23c 9d3b dc3c
00000220: fc3c 2e3c 31bc 393d 2b16 bd3c 4eed 403c
00000230: 4146 8bbd c813 1dbc fbd5 18bc f201 d3bc
00000240: 6d0f 353c 14c3 5bbd 4374 68bd 4db0 d43c
00000250: bcbe bc3c 4f29 893b cac5 91bd 19da f7bc
00000260: 2b7c d8bc c5e5 873c 3ba9 52bd 2484 c03c
00000270: 8ade 00bd ed46 263d 097b 6bbd ec90 233c
00000280: 935b a03c dc94 cf3b 8c23 653c deb8 6f3c
00000290: 5e22 5a3d 13cb ae3c 7f1f 2c3d 0cfd a6ba
000002a0: 3433 1d3d 8bd5 12bc 89f7 803c 262e 31bd
000002b0: 69c0 5abd 2eb9 7abd ff61 1e3c fc2c 2a3d
000002c0: a3a7 51bd 2fc2 8bbb b861 c9bc 5b42 263d
000002d0: fcb7 22bd 5cb5 dbbc 06e1 6fbd 1234 2ebd
000002e0: 8d4c 8abd f594 ecbc 0f23 da3c 54ab 15bc
000002f0: c886 84bd 0dfa fabc 0f99 373b 1cd7 18bd
00000300: f833 69bd 895b 17bd 8156 443d 2817 13bc
00000310: b5b3 2a3c 4d19 f2bc 4385 583d 1ad3 b73c
00000320: 4921 e5bc f987 403d d74d 06bc a7de 5cbd
00000330: a6a5 94bc 172d c5ba a2bc 07bd 1a8d 043d
00000340: 0dee 20ba cd6d 87bd 0785 37bd 6878 0ebd
00000350: ce05 d53c 497f aebd 38c5 6f3d 7ca0 273d
00000360: c05b 3f3d 8321 2e3d 129b 733c 741a 3c3c
00000370: dac2 a4bd 6917 bdbc a44b 1bbd e866 2b3d
00000380: 89a4 5bbd 02c9 08bc 2ac1 9fbd 1122 033d
00000390: 0a55 533d 7628 3fbc 38b3 e83c 0142 063d
000003a0: 7c1a 1bbd 845b afbd b8da 2cbc b2be 16bd
000003b0: c927 33bc eab1 eb39 8ef2 b0bc 566c 52bc
000003c0: b4f9 053d 10cc c83a 7c1d 8fbb 4945 97bc
000003d0: 687d 3cbc 782e a139 1ad2 e3bc 550a 33bd
000003e0: 840d 5abd 58f8 783c bfa8 133d 0c4d c53b
000003f0: 3e64 013b a2ce 74bd 90d1 183d f4b7 5fbd
0.024262581 0.046309993 -0.059892263 3.2866134e-05 -0.0011581738 -0.013123542 -0.019402938 0.016965955
-0.04539916 0.0068830913 -0.011676346 -0.03149211 0.04458426 0.034656532 -0.097727425 -0.027750542
-0.00906815 0.0045604836 -0.001971309 0.019665353 0.044844393 -0.05476308 -0.05232365 -0.012498852
-0.011565578 0.021545766 0.010430552 -0.012745478 0.014664519 -0.03166322 0.0326427 -0.06149071
0.050443534 -0.037944194 -0.057934076 -0.011448947 -0.04887136 -0.023551214 -0.015779486 -0.042189024
0.010410893 0.020099638 -0.015576014 -0.009928446 0.018555537 0.008931551 -0.05201686 0.005057519
-0.0022954901 -0.021285865 -0.0156105505 -0.051612128 -0.012964825 0.02185033 -0.019008406 0.031245546
-0.008738327 -0.01667025 0.05050925 0.07123385 -0.035106085 0.010459497 0.04007227 0.050991878
0.011949344 -0.040816348 0.0030713172 -0.00906645 0.023067776 -0.036743883 -0.021164779 -0.072755456
-0.021772822 -0.02992005 -0.041323103 0.016351966 -0.055237487 -0.037501547 -0.051986128 -0.037123572
-0.020385774 0.0028402114 -0.044640284 -0.08669423 -0.044267472 0.03675233 0.052102882 -0.07021587
-0.013806496 0.01733866 -0.008600127 0.039749328 0.057586033 -2.1178262e-06 -0.028640889 -0.03662664
0.041072376 0.034068152 0.05951707 -0.01881885 -0.004366437 0.038834672 -0.0640671 -0.012487925
-0.07675655 0.025678052 -0.056746505 -0.06774048 0.055027932 -0.007611222 -0.06520241 0.04981786
-0.0006113633 0.046408948 -0.021652441 0.008967983 -0.01765411 -0.0475305 0.050003484 -0.0420073
-0.0050627748 -0.044860065 -0.06299771 -0.026969204 0.023258192 -0.059414927 0.013873703 0.02462337
0.04476529 -0.009277835 -0.005155297 -0.0540995 0.012633249 0.026510863 0.021779496 0.026883895
0.010634657 0.04534549 0.02308186 0.011775328 -0.06800509 -0.009587236 -0.009328361 -0.025757764
0.011051041 -0.053652838 -0.0567515 0.025962973 0.023040168 0.0041858326 -0.071178034 -0.030255364
-0.026426395 0.016589055 -0.051430922 0.02350051 -0.03146223 0.040594984 -0.057490382 0.009983283
0.019574916 0.006334884 0.013985526 0.014631478 0.05325543 0.021337068 0.042022225 -0.0012740209
0.03837891 -0.008962045 0.015743034 -0.0432569 -0.053406153 -0.061211757 0.009666919 0.041546807
-0.05118526 -0.004265092 -0.024582729 0.040590625 -0.039726242 -0.026819877 -0.05856421 -0.042530127
-0.06752882 -0.028879622 0.026628045 -0.009135086 -0.0647102 -0.030636812 0.0028014814 -0.03731452
-0.056934327 -0.03695253 0.04793406 -0.008977689 0.010418822 -0.02955308 0.052861463 0.022439528
-0.027969973 0.047004674 -0.008197269 -0.053923275 -0.018145394 -0.0015043345 -0.03313888 0.032361127
-0.0006138988 -0.0661274 -0.0448046 -0.034782797 0.026003744 -0.085203715 0.05853769 0.040924534
0.04671836 0.042512428 0.014868515 0.011480916 -0.080449775 -0.023082452 -0.037913933 0.041846186
-0.05362371 -0.008348705 -0.07800515 0.03201491 0.05159477 -0.0116673615 0.02840577 0.03277779
-0.037867054 -0.08562377 -0.0105501935 -0.036802955 -0.0109347785 0.0004495525 -0.021600034 -0.012843212
0.03270884 0.0015319604 -0.0043675285 -0.018465655 -0.011504509 0.00030742935 -0.027810145 -0.043711025
-0.053235546 0.0151959285 0.0360496 0.0060211476 0.0019743587 -0.059767373 0.03730923 -0.05461879

batch_norms.0.weight f4 [300]
00000000: d1e0 813f 76b5 813f 0000 803f 9a83 7f3f
00000010: 4b18 7f3f 0000 803f 0000 803f 4a7a 863f
00000020: 23eb 7d3f 0000 803f 0000 803f c22e 6b3f
00000030: 382d 7f3f 8845 833f 1b47 803f 0000 803f
00000040: eac0 7b3f eef8 843f 0ee1 6c3f b162 823f
00000050: d47d 803f 0000 803f 2983 853f 0000 803f
00000060: 2f45 803f 9e7e 763f 48fb 7d3f 4ff8 7d3f
00000070: 2327 7f3f 0000 803f 0f73 733f efc1 813f
00000080: 19ac 7f3f a472 7f3f a1d9 7f3f 7e32 813f
00000090: b0f8 733f fe09 763f 0000 803f f6c5 7f3f
000000a0: f38c 813f 0000 803f 0000 803f 7d87 7f3f
000000b0: 0000 803f f59a 7f3f 02fe 7f3f 0000 803f
000000c0: 0000 803f 844e 803f 803b 7e3f d26e 7d3f
000000d0: 2155 7d3f 1687 7a3f 0000 803f 0000 803f
000000e0: 0000 803f 165d 913f dcaf 7f3f 0000 803f
000000f0: 34f2 7e3f 9dec 793f 0000 803f b19e 7f3f
00000100: a559 873f 5d11 7d3f 0000 803f 8f44 6f3f
00000110: d24a 843f 0000 803f 9a1b 803f 1725 7f3f
00000120: 5fb1 7f3f a885 7e3f 777d 5e3f d001 833f
00000130: 4558 813f 4573 853f f350 793f 7047 7c3f
00000140: 7791 7f3f ef51 823f 42a5 783f 0000 803f
00000150: 8b8b 743f 5f74 803f 30d3 613f 0000 803f
00000160: 812b 7a3f c199 7f3f cc4f 613f 45a3 7f3f
00000170: c3d6 7d3f f4d9 7d3f 0c8d 843f 0000 803f
00000180: 0000 803f d571 753f 0000 803f 0000 803f
00000190: 482f 813f b421 7e3f 0000 803f 8cb4 853f
000001a0: 14af 833f 0000 803f 83a2 7b3f 5d5d 7f3f
000001b0: 8e59 833f 0000 803f bca0 803f 0000 803f
000001c0: b62f 7e3f e848 873f 0000 803f aea1 783f
000001d0: b239 813f 0000 803f 62b9 6c3f 0aee 803f
000001e0: cddf 7f3f 0000 803f bc71 7f3f ed71 6d3f
000001f0: ec04 7e3f 0000 803f 04b1 7f3f 3d33 5e3f
00000200: d1cb 803f 0000 803f 076e 833f 91a3 803f
00000210: 0000 803f 0000 803f 4e8d 7e3f 0000 803f
00000220: 1c94 7f3f 0000 803f db40 7d3f 130e 803f
00000230: 0000 803f bff7 7d3f 0000 803f 3ab6 813f
00000240: 79ef 7d3f 0000 803f 2283 7f3f ffbc 7f3f
00000250: b3b4 7d3f 78b7 6d3f 1f95 803f 00a6 7f3f
00000260: 5987 833f eb49 7a3f 571a 7e3f d5b0 7f3f
00000270: 0000 803f a54c 7e3f 0000 803f 5629 803f
00000280: c751 773f 0000 803f 9b1d 7a3f 3c47 803f
00000290: c88a 783f 0000 803f ac2b 803f 613f 7b3f
000002a0: 8126 833f 8488 803f e433 823f 6dae 833f
000002b0: 257c 803f 05f9 7b3f 6933 6c3f 5d59 7f3f
000002c0: 4a98 823f 9546 7f3f 0000 803f 1e02 823f
000002d0: dab1 7f3f 506a 693f 1317 8a3f c125 823f
000002e0: 6095 7f3f 0000 803f 95da 7d3f da30 823f
000002f0: 1dac 7f3f 8138 843f c3b1 7f3f 524a 823f
00000300: 35d4 753f f23c 773f 367c 7f3f 0000 803f
00000310: c858 743f 0000 803f 1997 7e3f 39dc 7d3f
00000320: 85ce 873f c24c 7f3f 0000 803f 0000 803f
00000330: 9ab2 7f3f f607 7e3f 1125 813f 9e56 7d3f
00000340: 82af 7f3f 0000 803f 3676 7c3f 0000 803f
00000350: 3264 7d3f f557 803f 0000 803f c725 7e3f
00000360: 4feb 793f 0000 803f b7fa 843f 0b7b 7f3f
00000370: 66b2 833f a528 853f 0000 803f cc69 823f
00000380: a021 803f 8c58 833f 5759 7d3f 4025 7d3f
00000390: 861f 803f 0bf7 7f3f 174b 803f 1fef 743f
000003a0: 13b6 7f3f 0000 803f eb5f 813f 1195 803f
000003b0: 7896 7a3f 1e97 803f 0266 7e3f 1bbd 7f3f
000003c0: 0000 803f 176f 813f be29 7b3f c46d 7f3f
000003d0: ca3d 823f aa22 723f cc45 793f 6d3d 7f3f
000003e0: 0000 803f 9b7f 7f3f 0000 803f 727c 7d3f
000003f0: a7e1 7c3f dc71 653f 0000 803f 6f08 853f
1.0146734 1.0133502 1.0 0.99810183 0.99646443 1.0 1.0 1.050607
0.99186915 1.0 1.0 0.9186822 0.99678373 1.0255594 1.00217 1.0
0.9834124 1.0388467 0.92530906 1.0186368 1.00384 1.0 1.0430652 1.0
1.0021113 0.9628695 0.9921155 0.99207014 0.9966909 1.0 0.9509744 1.0137309
0.99871975 0.997843 0.9994145 1.0093534 0.9530134 0.96108997 1.0 0.9991144
1.0121139 1.0 1.0 0.99816114 1.0 0.9984582 0.9999696 1.0
1.0 1.0023961 0.9930954 0.98997223 0.9895802 0.97862375 1.0 1.0
1.0 1.1356533 0.99877715 1.0 0.9958832 0.9762667 1.0 0.9985152
1.0574232 0.9885462 1.0 0.9346399 1.0335333 1.0 1.0008423 0.9966597
0.9988002 0.99422693 0.86910194 1.0234928 1.0105063 1.0425802 0.97389144 0.98546505
0.99831337 1.0181254 0.97127163 1.0 0.95525426 1.0035514 0.8821287 1.0
0.9772263 0.99843985 0.88012385 0.99858505 0.99155825 0.99160695 1.0355544 1.0
1.0 0.9587682 1.0 1.0 1.0092554 0.99270177 1.0 1.0445724
1.0287805 1.0 0.9829485 0.99751836 1.0261705 1.0 1.0049052 1.0
0.9929155 1.0569124 1.0 0.97121704 1.0095732 1.0 0.9247037 1.0072644
0.9995087 1.0 0.9978292 0.9275196 0.9922626 1.0 0.9987948 0.86796933
1.00622 1.0 1.0267953 1.0049917 1.0 1.0 0.99434364 1.0
0.9983537 1.0 0.98927087 1.0004295 1.0 0.99206156 1.0 1.0133736
0.9919353 1.0 0.9980947 0.9989776 0.9910385 0.92858076 1.0045508 0.9986267
1.027568 0.9776904 0.9925894 0.998792 1.0 0.993357 1.0 1.0012615
0.9660916 1.0 0.97701424 1.0021739 0.97086763 1.0 1.0013328 0.98143584
1.0246125 1.0041661 1.0172086 1.0287606 1.0037886 0.9842685 0.92265946 0.9974573
1.0202725 0.99717075 1.0 1.0156896 0.99880755 0.91177845 1.0788292 1.0167772
0.99837303 1.0 0.99161655 1.0171158 0.99872 1.0329744 0.9988062 1.0178931
0.9602693 0.9657737 0.99798906 1.0 0.9544797 1.0 0.99449307 0.9916416
1.06099 0.997265 1.0 1.0 0.998819 0.992309 1.0089437 0.9896029
0.9987718 1.0 0.98617876 1.0 0.9898101 1.0026842 1.0 0.99276394
0.9762468 1.0 1.0389012 0.99797124 1.0288818 1.0403029 1.0 1.0188537
1.0010262 1.0261397 0.98964447 0.98884964 1.000962 0.9998633 1.0022916 0.9567737
0.998872 1.0 1.0107397 1.0045491 0.9788585 1.0046117 0.993744 0.9989793
1.0 1.0112027 0.9811057 0.99776864 1.0175107 0.94584143 0.97372127 0.99703103
1.0 0.99804085 1.0 0.99018013 0.9878182 0.8962686 1.0 1.0393199
