nn_weights/in_vitro/glu/trained_nn.pt (torch, 780149 bytes, 16 tensors)

input.weight f4 [300, 30]
0	0x3d18f9fd	0.037347782
1	0x3dad6288	0.08466059
2	0x3e4b1c29	0.19834961
3	0xbdf18ae7	-0.11794072
4	0xbe4676f3	-0.19381313
5	0xbd1d452b	-0.03839604
6	0xbdeaa8f9	-0.1145801
7	0x3d0f1bcd	0.034938622
8	0x3d7caa27	0.061685707
9	0x3def282d	0.11677585
10	0xbe288f61	-0.16460945
11	0x3d1d4f0f	0.038405474
12	0xbe2d0be0	-0.16899061
13	0x3d9a1af9	0.07524676
14	0x3e69574d	0.22787209
15	0xbe014da0	-0.12627268
16	0xbdbfb141	-0.093599804
17	0x3e107c39	0.14109887
18	0x3ddd7c0f	0.10814678
19	0xbd3b7de0	-0.04577434
20	0x3e590a48	0.21195328
21	0x3e46b894	0.19406348
22	0x3c8f9d51	0.017531069
23	0x3de60366	0.11231117
24	0xbe219343	-0.15778832
25	0x3d6f4ebd	0.0584247
26	0xbd493b25	-0.04912867
27	0x3e00ebb8	0.1258992
28	0xbe1c9b7b	-0.15293686
29	0xbe02a467	-0.12758027
30	0xbd97abcd	-0.07405815
31	0xbe2118ab	-0.15732066
32	0x3e348061	0.17627098
33	0x3d934898	0.071915805
34	0x3d8e9565	0.069620885
35	0xbcb1b275	-0.02169154
36	0x3cc14c5c	0.023595981
37	0xbde6cb73	-0.112692736
38	0xbd57004c	-0.052490517
39	0x3cbb56a2	0.022868458
40	0xbe296ced	-0.16545458
41	0xbc8fba0a	-0.017544765
42	0xbc768928	-0.015047349
43	0x3dc07619	0.09397525
44	0x3e384c7c	0.17997926
45	0x3bae49a9	0.0053188396
46	0xbc8e4e42	-0.0173713
47	0x3e2fc5e4	0.17165333
48	0xbdc6b7db	-0.097030364
49	0x3d6de213	0.05807693
50	0x3d816111	0.06317342
51	0xbde072c4	-0.1095939
52	0xbdad3415	-0.084571995
53	0x3ce52158	0.027970001
54	0xbda95d7d	-0.082697846
55	0xba3e9e6d	-0.0007271532
56	0x3e30eadc	0.17277092
57	0xbc8439e4	-0.016140886
58	0x3d978a78	0.07399458
59	0x3dfdadef	0.12386691
60	0xbdf56d81	-0.11983777
61	0xbbb7068f	-0.0055854986
62	0x3b4eecce	0.0031574252
63	0xbe1eb577	-0.15498911
64	0xbdeed54c	-0.11661777
65	0x3e1157b2	0.1419361
66	0xbe25bbfa	-0.16184989
67	0x3dc5a40e	0.096504316
68	0xbdeae28b	-0.11468991
69	0xbd0d2fd9	-0.03446946
70	0xbe260706	-0.16213617
71	0x3d40bf87	0.047057655
72	0x3df99705	0.12187008
73	0xbcde18fa	-0.02711152
74	0xbd9b722a	-0.075901344
75	0xbdf1384e	-0.117783174
76	0x3e29678c	0.16543406
77	0xbd85a179	-0.06524939
78	0x3dddf546	0.10837798
79	0xbdae15ed	-0.08500276
80	0x3c86faad	0.016476953
81	0x3c69d2ae	0.014271421
82	0xbc08f933	-0.008360195
83	0xbe1d4cda	-0.15361348
84	0x3d8baba9	0.06819851
85	0x3dab0700	0.083509445
86	0xbd590edd	-0.05299269
87	0x3e1d0c92	0.15336826
88	0xbc0c7fd8	-0.008575402
89	0xbdad6a0e	-0.08467494
90	0xbd76beb8	-0.060240477
91	0xbcccf751	-0.025020273
92	0x3d29465f	0.041326877
93	0xbe0d9033	-0.13824539
94	0xbdd312a5	-0.103062905
95	0xbe041b1f	-0.12900971
96	0x3bbc8baf	0.0057539563
97	0xbd1bc12d	-0.038026024
98	0xbe36a9ff	-0.17838286
99	0x3d05adfb	0.032636624
100	0xbdd0b55d	-0.10190842
101	0x3c27f883	0.010252121
102	0xbcb5cfe9	-0.022193866
103	0xbd90c097	-0.070679836
104	0xbe053200	-0.13007355
105	0x3da0a6f8	0.07844347
106	0xbd36eab8	-0.04465744
107	0x3e012826	0.12612972
108	0x3e2d0c27	0.16899167
109	0x3ce79b1a	0.0282722
110	0xbd2675fa	-0.040639855
111	0x3cb3ad1a	0.021933127
112	0x3e2412f6	0.16022858
113	0xbe0cb4a9	-0.13740791
114	0x3dbe16d2	0.092816964
115	0xbe1cb410	-0.15303063
116	0x3e152020	0.14563036
117	0x3ddd5343	0.108068965
118	0x3e22318d	0.15839215
119	0xbcda50b2	-0.026649807
120	0x3daf7fe4	0.08569315
121	0xbe110d7a	-0.14165297
122	0xbe32929d	-0.17438741
123	0xbe182b7a	-0.14860335
124	0x3e2c2e87	0.16814624
125	0x3beb00fa	0.0071717473
126	0xbc0275ab	-0.007962625
127	0x3dff3b14	0.1246244
128	0xbe1e685f	-0.15469502
129	0x3dd9f6e5	0.106427945
130	0x3d7c21a4	0.06155552
131	0x3d17a0ec	0.0370187
132	0xbdbea00e	-0.09307872
133	0x3e0e67ae	0.13906738
134	0x3d847e1a	0.064693645
135	0x3c1550c8	0.009113498
136	0x3e39bdb7	0.18138777
137	0xbe0cac7e	-0.13737676
138	0x3d93545c	0.07193825
139	0x3e28dfac	0.16491574
140	0xbdd329e6	-0.10310726
141	0xbe2bba6a	-0.1677033
142	0xbd43a631	-0.047765914
143	0xbe221ac4	-0.15830523
144	0xbdd42032	-0.10357703
145	0xbd097f56	-0.033568703
146	0xbd6179f8	-0.05504796
147	0xbddd664d	-0.10810528
148	0x3d89ee6f	0.06734931
149	0x3e1f7c7e	0.15574834
150	0x3ca7dae6	0.020490121
151	0xbd94ec0a	-0.072715834
152	0x3d076ce1	0.03306282
153	0xbd6e3810	-0.058158934
154	0xbd399c9f	-0.04531538
155	0x3d8238fd	0.06358526
156	0xbda9ef4a	-0.08297594
157	0x3d2533ac	0.04033248
158	0xbc0ca98a	-0.008585343
159	0xbc6a2151	-0.01429017
160	0x3de7ecbc	0.113244504
161	0xbdaed6c4	-0.08537057
162	0xbe1fc27f	-0.15601538
163	0xbe2b2bf2	-0.16715983
164	0x3cc0bb02	0.023526672
165	0xbcdc0733	-0.026858902
166	0xbe12fff2	-0.14355448
167	0xbdbaa075	-0.09112636
168	0xbe399c1a	-0.18125954
169	0xbd35df24	-0.044402257
170	0xbd84d930	-0.06486738
171	0xbdb18fdd	-0.08670018
172	0x3da7823e	0.081791386
173	0x3d0162fd	0.031588543
174	0xbe45680d	-0.19277973
175	0x3e02d73c	0.12777418
176	0x3e207150	0.15668225
177	0xbdfc4775	-0.12318317
178	0x3dc47483	0.09592535
179	0xbd552e99	-0.052046392
180	0x3e8c483a	0.27398854
181	0x3e06bb3e	0.13157365
182	0x3d95e1d2	0.073184624
183	0x3e0a8427	0.13526975
184	0x3d9e04b1	0.077157386
185	0xbd33236f	-0.043734964
186	0x3db32b44	0.08748487
187	0x3dbd7a2c	0.09251818
188	0x3d796396	0.06088599
189	0xbd1cfe86	-0.03832867
190	0xbe1da3c4	-0.15394503
191	0x3dd81609	0.10551078
192	0xbd9051cf	-0.07046854
193	0xbe261dac	-0.16222256
194	0x3defb866	0.11705093
195	0xbda9f07d	-0.082978226
196	0x3dea5764	0.1144245
197	0xbd5d5dc5	-0.054044504
198	0xbd2f11cd	-0.042741586
199	0x3dc0f39e	0.09421466
200	0xbe1127b2	-0.14175299
201	0xbd831f26	-0.064024255
202	0x3e131017	0.14361607
203	0xbe17d465	-0.14827116
204	0xbda462f2	-0.08026685
205	0xbde15dbe	-0.11004208
206	0x3dec773d	0.115461804
207	0xbdce0b89	-0.10060794
208	0xbdc58888	-0.09645182
209	0xbdcc73e5	-0.09983043
210	0xbc84c94b	-0.016209265
211	0xbcf6c61e	-0.030123767
212	0xbd8e32a0	-0.0694325
213	0xbe4eee99	-0.20208205
214	0x3de7232b	0.11286005
215	0xbdb7dc48	-0.08977562
216	0x3e0967e0	0.13418531
217	0xbde6ef64	-0.11276129
218	0x3d47b5a7	0.04875722
219	0xbd660b77	-0.056163277
220	0xbd803d4c	-0.062616915
221	0x3e1d0dcb	0.15337293
222	0xbe4918c0	-0.19638348
223	0xbe31bced	-0.17357226
224	0xbc787f55	-0.015167077
225	0x3d5c8ef0	0.053847253
226	0x3e0c46cb	0.1369888
227	0x3e308a4d	0.17240258
228	0xbdad86b0	-0.08472955
229	0x3c53b5a2	0.012921723
230	0xbe38438c	-0.17994517
231	0x3de79304	0.11307338
232	0x3d8711c2	0.06595184
233	0xbe4e6902	-0.20157245
234	0x3e2b02c7	0.16700278
235	0xbdc158e6	-0.09440784
236	0xbe13cf55	-0.1443456
237	0xbc893451	-0.01674858
238	0xbba81879	-0.0051298705
239	0xbdfc99e4	-0.1233404
240	0x3e03d37f	0.12873648
241	0xbdc269d9	-0.09492845
242	0x3e2e4233	0.1701744
243	0xbd8c608a	-0.06854351
244	0xbc5f868f	-0.013642921
245	0x3df94534	0.121714026
246	0x3e04c182	0.12964442
247	0xbe4fb738	-0.20284736
248	0x3e20dc9e	0.15709159
249	0xbc17e19b	-0.009270097
250	0xbe48fb0e	-0.1962702
251	0xbe198e40	-0.1499567
252	0x3d4496e8	0.047995478
253	0xbdecd300	-0.115636826
254	0x3e1d89c4	0.15384585
255	0x3dd20939	0.10255665

input.bias f4 [300]
0	0xbd2e4a01	-0.042551044
1	0xbe35d10a	-0.17755523
2	0xbcf321ea	-0.029679257
3	0xbe1ab55c	-0.15108246
4	0x3c3afb0f	0.011412396
5	0x3e02e9d9	0.12784518
6	0xb9110c48	-0.00013832853
7	0x3e06dd12	0.13170269
8	0x3ccf0bce	0.025274184
9	0x3daa1b49	0.083059855
10	0x3ce4a555	0.027910868
11	0x3d089534	0.033345416
12	0xbe1099c4	-0.14121157
13	0x3e0892b3	0.13337211
14	0x3cd95611	0.026530297
15	0xbd071ada	-0.032984592
16	0xbd0a5da1	-0.033780698
17	0x3dc4fe20	0.09618783
18	0xbe0153db	-0.12629645
19	0xbc12c685	-0.008958464
20	0x3e0b0039	0.13574304
21	0xbe02af1b	-0.1276211
22	0x3cbcde37	0.023055179
23	0xbdb10a77	-0.08644574
24	0xbced2154	-0.028946556
25	0x3d2e30ec	0.042527124
26	0x3dd397a4	0.103316575
27	0xbe25be7c	-0.16185945
28	0x3c9bb2b7	0.019006116
29	0x3d829f51	0.063780434
30	0x3baf7a2a	0.0053551393
31	0xbe340c09	-0.17582716
32	0x3d20ff56	0.039306007
33	0xbd7a0ced	-0.061047483
34	0x3b9bb5b8	0.004751887
35	0xbe33836e	-0.17530605
36	0xbe2c055b	-0.16798918
37	0xbdee2bb3	-0.11629429
38	0x3dcef349	0.10104997
39	0x3d80d017	0.0628969
40	0x3e0c13bb	0.13679402
41	0x3e0780bc	0.13232702
42	0xbdd46e75	-0.103726305
43	0xbdde0343	-0.10840466
44	0xbe1d2c26	-0.15348873
45	0x3d84d555	0.06486002
46	0x3cee9ad7	0.029126568
47	0xbda79d28	-0.08184272
48	0x3decc06d	0.1156014
49	0x3c5e4771	0.013566838
50	0x3d3a574d	0.045493413
51	0xbe132dce	-0.14372942
52	0xbe070daf	-0.13188814
53	0xbcfed415	-0.031106988
54	0xbdf21007	-0.11819463
55	0xbc7b0e2d	-0.015323204
56	0xbccab9fd	-0.02474689
57	0xbe324027	-0.17407285
58	0xbe266bc0	-0.16252041
59	0xbe0cb668	-0.13741457
60	0xbde44edb	-0.11147853
61	0xbe32443d	-0.17408843
62	0x3dbfdaba	0.09367891
63	0xbcc91657	-0.024546785
64	0x3e16e7a6	0.14736804
65	0xbc5a7861	-0.013334365
66	0x3cb640f8	0.022247776
67	0x3d826b22	0.0636809
68	0xbde969b6	-0.11397116
69	0xbd80709c	-0.062714785
70	0x3d9e428e	0.07727538
71	0x3d92ffd1	0.07177699
72	0x3e08a0ee	0.1334264
73	0xbd6e47d1	-0.05817396
74	0xbe05e6f1	-0.13076378
75	0x3d92f93a	0.071764424
76	0xbe0581a4	-0.13037735
77	0xbb2c5a56	-0.0026298962
78	0x3cfbb3f3	0.030725455
79	0x3e0fd3bf	0.14045618
80	0xbd66df99	-0.056365583
81	0x3decd8b3	0.115647696
82	0xbd8c40f8	-0.06848329
83	0xbe0bbd46	-0.13646421
84	0x3c8ded3d	0.017325038
85	0x3c5b6fb0	0.013393328
86	0x3df1f5a9	0.11814434
87	0x3dff9f1b	0.12481519
88	0x3d6fee8c	0.058577105
89	0xbc398f3e	-0.0113256555
90	0xbcba8d87	-0.022772564
91	0x3defb74a	0.117048815
92	0xbc9fa28a	-0.019486684
93	0x3e1ae321	0.15125705
94	0xbe14d32b	-0.14533679
95	0x3bd6e562	0.0065581063
96	0xbd7811e0	-0.060563922
97	0xbe021762	-0.12704232
98	0x3c4726bd	0.012155232
99	0xbe1601ab	-0.14649074
100	0xbdea686f	-0.114457004
101	0x3e13cfd6	0.14434752
102	0x3c466054	0.012107927
103	0xbdfbd8b2	-0.12297191
104	0xbc729542	-0.014806094
105	0xbe0d53ac	-0.1380145
106	0xbe034944	-0.12820917
107	0x3dbb0002	0.09130861
108	0xbd426026	-0.047454976
109	0x3de83420	0.11338067
110	0xbd7199c4	-0.058984533
111	0x3d2c65c6	0.042089246
112	0xbe3484ce	-0.17628786
113	0x391e5c3b	0.00015102413
114	0xbdd4721c	-0.10373327
115	0xbdbe8caf	-0.09304177
116	0xbe15138b	-0.14558236
117	0xbdbfd53d	-0.09366844
118	0xbdbbfcd8	-0.091790855
119	0xbdc51191	-0.09622491
120	0x3dcf2465	0.101143636
121	0x3db307b1	0.087417014
122	0x3ca0a2b1	0.019608827
123	0x3da2f58e	0.07956992
124	0x3dbb7ac9	0.09154279
125	0xbdc9f490	-0.098611
126	0x3c7e02cd	0.015503597
127	0xbe301f31	-0.17199399
128	0xbc57633c	-0.013146218
129	0xbda83116	-0.082124874
130	0x3d4a3a8b	0.049372237
131	0xbb9367b6	-0.0044984473
132	0xbd27d119	-0.040970895
133	0xbe0e9edb	-0.13927786
134	0xbe2555ae	-0.16145965
135	0x3defe4e7	0.117135815
136	0x3dc5c2be	0.09656285
137	0x3e06ea6d	0.13175364
138	0x3cbf0a83	0.023320442
139	0x3c9a768e	0.01885536
140	0xbdd2b7c2	-0.10288955
141	0x3d178660	0.036993384
142	0xbda9d512	-0.08292593
143	0xbe3921d8	-0.18079317
144	0xbcd81176	-0.026375514
145	0x3ce18cf4	0.027533032
146	0x3d103191	0.03520352
147	0xbe2a56af	-0.1663463
148	0xbe0e0ce7	-0.1387211
149	0xbdb94e29	-0.09048111
150	0x3df52ef4	0.11971846
151	0xbdbf961d	-0.09354804
152	0xbe28b415	-0.16474946
153	0xbc24779d	-0.010038284
154	0x3dcb0d9b	0.099147044
155	0xbcb759fe	-0.022381779
156	0x3d06160b	0.032735866
157	0xbd8c31f4	-0.06845465
158	0xbdff2176	-0.12457554
159	0xbd855560	-0.065104246
160	0x3c0cfc42	0.008605065
161	0xbd51d208	-0.051225692
162	0x3d4551c4	0.04817368
163	0xbe2d2670	-0.16909194
164	0xbdedda82	-0.11613943
165	0x3df9659f	0.12177586
166	0xbbec8e0c	-0.0072190817
167	0x3d8bb71e	0.06822036
168	0xbe040ac8	-0.12894738
169	0x3d4893c8	0.04896906
170	0x3e16e03d	0.14733978
171	0x3d241c0e	0.040065818
172	0xbe266d5d	-0.16252656
173	0xbe097f1b	-0.13427393
174	0xbe04641e	-0.12928817
175	0x3e2af402	0.16694644
176	0xbca480a7	-0.020080877
177	0xbde55de9	-0.111995526
178	0xbe0c5e06	-0.13707742
179	0x3de9cfd7	0.114165954
180	0x3dd5b159	0.10434217
181	0x3d69ee28	0.05711189
182	0x3d8d4c6b	0.06899341
183	0x3dfe3178	0.12411779
184	0x3e0ec715	0.13943131
185	0x3da24982	0.07924177
186	0x3db7d1e6	0.08975582
187	0xbbe05c1a	-0.006846917
188	0xbe018cbb	-0.1265134
189	0x3d048f52	0.032363243
190	0xbde7e638	-0.113232076
191	0xba8a4e3f	-0.0010551884
192	0xbd80aeb6	-0.062833235
193	0xbcc74a58	-0.024327442
194	0x3de32d6c	0.11092648
195	0xbd18d987	-0.037316825
196	0xbd5b5350	-0.05354625
197	0x3dab93e5	0.08377818
198	0xbdbd3ee6	-0.092405125
199	0x3d1eabe0	0.03873813
200	0xbd2b72c3	-0.041857492
201	0xbcda80c2	-0.026672725
202	0x3dcaece0	0.099084616
203	0xbd835a8a	-0.06413753
204	0x3da6bf98	0.08142012
205	0xbd8fdf94	-0.07025066
206	0xbe28cff3	-0.16485576
207	0x3e11f4cc	0.14253539
208	0x3d704f4e	0.05866938
209	0xbe035696	-0.12825999
210	0x3d0b6340	0.0340302
211	0xbc25dfc4	-0.010124151
212	0x3d0492cd	0.032366563
213	0x3b24d240	0.0025149733
214	0xbd471faa	-0.04861418
215	0x3d8115bc	0.06302974
216	0xbd22ecd6	-0.039776646
217	0xbd71e398	-0.05905494
218	0xbe31741d	-0.1732945
219	0x3e0b49b6	0.13602337
220	0xbd8ee7fd	-0.06977842
221	0x3c926d5e	0.017874416
222	0x3ddbbede	0.107297644
223	0xbe352f27	-0.17693768
224	0x3dbe9968	0.09306604
225	0xbdae9220	-0.08523965
226	0x3e02b726	0.12765178
227	0x3dd4bd32	0.10387649
228	0x3def5c96	0.11687581
229	0x3dce84f5	0.10083953
230	0x3e1ac1b2	0.15112951
231	0xbb9ef710	-0.0048512295
232	0x3e07813c	0.13232893
233	0x3d9d37fa	0.07676692
234	0x3d2d4cf5	0.04230972
235	0x3cf20649	0.029544013
236	0xbe0538a8	-0.13009894
237	0xbe366ad5	-0.1781419
238	0xbcc0f9e2	-0.023556653
239	0x3dfa9643	0.122356914
240	0xbd816a23	-0.06319072
241	0xbe1ddf43	-0.15417199
242	0xbba728a6	-0.005101281
243	0x3dfd70b8	0.12375015
244	0x3ca7ae7a	0.02046894
245	0x3dd6a130	0.10479963
246	0x3dc685a6	0.0969346
247	0xbdf7f68a	-0.121075705
248	0xbe0b58e5	-0.1360813
249	0x3db1ff1f	0.086912386
250	0x3cf34bf3	0.029699301
251	0x3d3f22d3	0.04666407
252	0x3d4ae749	0.049536977
253	0x3d93ba92	0.0721332
254	0xbdea3886	-0.11436562
255	0x3dcccc2c	0.0999988

output.weight f4 [4, 300]
0	0x3c35e1d1	0.011101202
1	0xbc752f4f	-0.0149648925
2	0x3cc9822e	0.024598207
3	0xbb218c7b	-0.0024650383
4	0xbd5d3d03	-0.054013263
5	0xbd43fade	-0.047846667
6	0xbd3d1b0f	-0.046168383
7	0x3cc16403	0.02360726
8	0xbad56e21	-0.0016283431
9	0xbaf44d44	-0.001863875
10	0xbca9880b	-0.020694753
11	0xb9aecf0f	-0.00033342137
12	0xbcf0abcf	-0.0293788
13	0xbae64777	-0.0017568906
14	0x3a3da29d	0.0007234009
15	0x3cb279ee	0.021786656
16	0xbc1d4931	-0.00959997
17	0x3d12791b	0.035760026
18	0x3cf6d004	0.030128486
19	0x3ae9da03	0.0017841462
20	0xbaf7f476	-0.001891746
21	0x3c942f95	0.018089095
22	0xbbbaff25	-0.005706685
23	0xbb10e5cf	-0.0022109633
24	0x3b03ff2d	0.002014111
25	0xbab209d4	-0.0013583251
26	0x3d07ad15	0.03312405
27	0xbd6332e5	-0.05546846
28	0x3d043b29	0.032282982
29	0xbc8f6c9b	-0.017507842
30	0x3ab66487	0.0013915458
31	0xbc5f9760	-0.01364693
32	0xbd961aba	-0.073293164
33	0x3d123fe5	0.035705466
34	0x38d7207f	0.00010258052
35	0xbac2a4da	-0.0014850155
36	0x3d0392fe	0.032122605
37	0x398d02ef	0.000268958
38	0x3c61efa6	0.013790047
39	0xbb2f5875	-0.0026755605
40	0x3b82e2be	0.003994315
41	0xbd59567b	-0.05306099
42	0x39820d40	0.00024805404
43	0xbb10dec4	-0.0022105435
44	0xbb5decfc	-0.0033863178
45	0x3aaf897a	0.0013392412
46	0xbd744d77	-0.05964419
47	0x3b3b1477	0.0028546134
48	0x3cd5c536	0.026095014
49	0x3bda0c1d	0.006654276
50	0x3dd11e94	0.102109104
51	0xbc83747b	-0.016046753
52	0x3a65dac0	0.0008768253
53	0xbc7bc915	-0.015367766
54	0x3864e511	5.457277e-05
55	0xbce2cbb8	-0.027685031
56	0x3b81fb07	0.0039666924
57	0xbced0310	-0.028932124
58	0xbb3a46fb	-0.0028423655
59	0x3a325180	0.00068023056
60	0x3caed16d	0.021340096
61	0xb855265e	-5.081889e-05
62	0xb921dfdd	-0.00015437552
63	0x3be8977c	0.0070981365
64	0x3b3406c0	0.0027469844
65	0xbd581b8d	-0.05276065
66	0xbac277d6	-0.0014836739
67	0xbbb59645	-0.005541595
68	0xbc003eea	-0.0078275
69	0xba8c3f3c	-0.0010699998
70	0x3aa69472	0.0012709035
71	0xbaa92304	-0.0012904112
72	0xbce4b6e4	-0.02791924
73	0xba4c7597	-0.00077995047
74	0x3b530564	0.0032199258
75	0x3b920470	0.0044560954
76	0xbd4e3fd5	-0.050353844
77	0xbcbaadf5	-0.022788027
78	0xba029aaf	-0.0004982156
79	0x3a98a37b	0.0011645401
80	0xbd677bf2	-0.056514688
81	0xbd3f17e6	-0.04665365
82	0xbc0729df	-0.008249729
83	0xbb23d4d1	-0.0024998675
84	0x3b0d78fe	0.002158701
85	0xbc432b08	-0.011912115
86	0x3d0a5e3c	0.033781275
87	0x3ad629bd	0.0016339343
88	0x3d0670d2	0.032822438
89	0x3b068ce3	0.0020530752
90	0xbc4d58d2	-0.012533383
91	0xba4e7645	-0.00078759
92	0xbcf0bfd5	-0.029388348
93	0xbc68eb16	-0.014216205
94	0xbd415342	-0.04719854
95	0x3bd4eff9	0.0064983335
96	0x3cb53e01	0.022124292
97	0x3a3d80b4	0.0007228956
98	0xbb85477d	-0.00406736
99	0xbbb3dafd	-0.005488752
100	0xbc24150f	-0.010014786
101	0x3cde8e1c	0.027167372
102	0xbd6283fc	-0.05530165
103	0x3b3b01da	0.002853504
104	0xbda76671	-0.08173836
105	0xbe18d990	-0.14926744
106	0x3b19b316	0.002345269
107	0x3ad8f011	0.0016551038
108	0xbc6b6056	-0.01436623
109	0x3b7ddb31	0.0038735385
110	0xb9530896	-0.00020125727
111	0xba743f68	-0.00093173096
112	0x3bfdb884	0.0077429432
113	0xbb30614c	-0.0026913462
114	0xbb396913	-0.002829139
115	0xbc35ce62	-0.011096569
116	0x3d1cb356	0.038256966
117	0x3b8a2677	0.004216011
118	0xbbefe31b	-0.0073207743
119	0x3c6cc07f	0.0144501915
120	0xbca6482c	-0.020298086
121	0x3af55507	0.0018717357
122	0x393da384	0.00018085359
123	0x3cb31d39	0.02186452
124	0xbd36d589	-0.044637237
125	0xbaea53ea	-0.0017877792
126	0x3c6b5df6	0.014365664
127	0x3c143aa6	0.009047186
128	0x3b352dff	0.0027645824
129	0x3d60febf	0.054930445
130	0x3c0438b8	0.008070163
131	0xbc1494b9	-0.009068661
132	0x3d0c260e	0.03421598
133	0xbd34ff95	-0.044189055
134	0xbba75e4b	-0.005107676
135	0xbbc4ff0f	-0.0060118507
136	0xbcf717c6	-0.030162703
137	0xbaf97e32	-0.0019034802
138	0xbc95f811	-0.018306764
139	0xbaff4ffe	-0.0019478796
140	0x3a24cb76	0.00062864216
141	0x3c0180a2	0.007904204
142	0x3af4657d	0.0018645969
143	0x3bbb3adb	0.005713803
144	0xbc27f588	-0.01025141
145	0xb8bfa1f9	-9.1377595e-05
146	0xbc44fbbd	-0.01202291
147	0x395a3170	0.00020808517
148	0xbd3d93f2	-0.04628367
149	0xba65d718	-0.0008767708
150	0x3ac49a93	0.001499968
151	0xbd9ab65e	-0.07554315
152	0xbc365191	-0.011127845
153	0xbd5483ac	-0.051883385
154	0x3afe9188	0.0019422034
155	0x3bb937b0	0.0056523904
156	0x3a18d526	0.00058301014
157	0x3b842766	0.004033017
158	0xbc99488d	-0.018711353
159	0xbc54274f	-0.012948825
160	0xbcf2aed7	-0.029624386
161	0x3c94eefa	0.01818036
162	0x3ccb8d0b	0.024847528
163	0xbcc14655	-0.023593107
164	0x3c7b6918	0.0153448805
165	0x3d196c9c	0.037457094
166	0xbc073f77	-0.008254877
167	0x3c66f559	0.014096581
168	0x38af49cc	8.358396e-05
169	0xbcce0b20	-0.02515179
170	0xbb649658	-0.003487965
171	0xbd5f904e	-0.05458098
172	0x3d101e45	0.035185117
173	0xbb335442	-0.0027363454
174	0xbb8aa84a	-0.0042314874
175	0x3cc0f9b0	0.02355656
176	0xbb81fd7f	-0.0039669867
177	0xbd5cf381	-0.05394316
178	0xbd1dd09d	-0.038529027
179	0x3d10a872	0.035316892
180	0x3ac29d54	0.0014847913
181	0xbccb683b	-0.024829974
182	0x3c2d5788	0.010579951
183	0xbd5563a4	-0.052096978
184	0x3b353047	0.0027647184
185	0x3d0f4a3b	0.0349829
186	0xbc516829	-0.012781181
187	0x3cfe9c9e	0.03108054
188	0x3d0a4705	0.033759136
189	0x3a2b3e5e	0.0006532426
190	0xbb89a383	-0.0042004003
191	0xbd5f3405	-0.05449297
192	0xbb063a8f	-0.002048168
193	0x3d04a832	0.032386966
194	0x3d78834d	0.060672093
195	0x38cd698f	9.7948236e-05
196	0xba9f9dcd	-0.0012177766
197	0xbc76c9e5	-0.015062784
198	0xbd5a1199	-0.05323944
199	0x3d0de2f0	0.034640253
200	0xbc85ab3f	-0.016317008
201	0x3b130bcd	0.0022437454
202	0x3b5335a2	0.0032228013
203	0xbcb82ed6	-0.02248327
204	0xbd582142	-0.052766092
205	0x3da53b26	0.08067922
206	0xbc4488e2	-0.011995526
207	0x3b86e30d	0.004116422
208	0x3da4cc77	0.08046811
209	0xbc8fe555	-0.017565409
210	0xbd14a80b	-0.03629307
211	0xbd4c094f	-0.049813565
212	0x3c7dbe5d	0.015487281
213	0x3c50018b	0.01269568
214	0x3d758ae5	0.059946913
215	0xbd72f5d4	-0.05931647
216	0xba8b1966	-0.0010612428
217	0x3c09c93e	0.008409796
218	0xbc0d4728	-0.008622922
219	0xbc164a35	-0.009172966
220	0x3cf38704	0.029727466
221	0x3d0103c1	0.03149772
222	0xbd59ed72	-0.05320496
223	0xbac7ba12	-0.0015237948
224	0x3a6ebdf7	0.00091072865
225	0xb845c85b	-4.7155056e-05
226	0xba367fc0	-0.0006961785
227	0xbe05de03	-0.13072972
228	0xbdeb0e18	-0.114772975
229	0x3cad97f6	0.021190625
230	0xbb6c61c0	-0.0036069006
231	0xbc640007	-0.013916022
232	0xbb9363f3	-0.004497999
233	0xbc8725a8	-0.016497448
234	0xbae85bfb	-0.0017727608
235	0x3b992db7	0.004674639
236	0xbd427a15	-0.047479708
237	0x3890c845	6.903758e-05
238	0x3baa913b	0.005205301
239	0x3d06dae4	0.032923594
240	0x37cfa171	2.47515e-05
241	0x3a825c52	0.0009945726
242	0x3b06609c	0.002050436
243	0xba9bcf06	-0.0011887259
244	0xbbefbefe	-0.007316469
245	0xbbacdc75	-0.005275304
246	0x3c97ff81	0.018554451
247	0x3bc11d15	0.0058933594
248	0x3d0112d6	0.031512104
249	0xb7185262	-9.079087e-06
250	0x3d114b73	0.035472345
251	0x399a2d50	0.0002940693
252	0x374cad8c	1.2199755e-05
253	0xbbaa41a8	-0.005195815
254	0xbb04df1f	-0.0020274592
255	0x3b5a36d5	0.0033296843

output.bias f4 [4]
0	0xbc6e744e	-0.014554096
1	0xbd1e3631	-0.0386259
2	0x3c781224	0.015141044
3	0xbc2dd040	-0.010608733

hidden.0.weight f4 [300, 300]
0	0xbd45dba2	-0.04830516
1	0x3d542790	0.051795542
2	0xbb50f4a8	-0.0031884108
3	0xbd2d8358	-0.042361587
4	0xbd36194f	-0.04445773
5	0xbd036cfa	-0.03208635
6	0xbd9be21e	-0.07611488
7	0xbc9deee2	-0.019278947
8	0xbd0ef46e	-0.034901075
9	0xbd3efa0c	-0.046625182
10	0xbc351500	-0.01105237
11	0xbc747da7	-0.014922536
12	0x3d536f1f	0.051619645
13	0xbccdaa92	-0.025105748
14	0xbcf8ccdd	-0.030371124
15	0xbd375731	-0.044760887
16	0xbd4dee80	-0.05027628
17	0xbd83b53f	-0.06431054
18	0x3d4004b1	0.046879474
19	0x3c9fbcc4	0.01949919
20	0xbd59d77b	-0.053184014
21	0xbd44d004	-0.04804994
22	0xbd3b8f92	-0.045791216
23	0xbd626c52	-0.055279084
24	0xbc2c1d76	-0.010505071
25	0xbc525795	-0.012838264
26	0x3d1ca35f	0.03824174
27	0x3cfc510a	0.030800361
28	0xbd2851c8	-0.041093618
29	0x3d11b10a	0.03556923
30	0xbd4df84e	-0.05028563
31	0x3cd565f3	0.02604959
32	0xbd14f659	-0.036367748
33	0x3cf195a1	0.029490294
34	0xbbc84406	-0.0061116247
35	0xbca96ab6	-0.020680767
36	0x3ad61cb6	0.0016335461
37	0x3c1bf924	0.009519849
38	0x3aa8e72c	0.0012886277
39	0xbd25a4fd	-0.04044055
40	0x3cd70950	0.026249558
41	0x3b8be385	0.004269066
42	0x3d15490b	0.036446612
43	0x3d07b9ec	0.033136293
44	0xbd2fadc6	-0.042890333
45	0xbd5c561a	-0.05379305
46	0xbd079ff0	-0.033111513
47	0x3c04503f	0.008075773
48	0xbd86c906	-0.06581311
49	0x3d5a692b	0.053322952
50	0xbc5e9c66	-0.013587093
51	0x3c9fe449	0.019518035
52	0x3d0cf503	0.03441335
53	0x3b1d613c	0.0024014255
54	0xbd359945	-0.044335622
55	0xbd8e0551	-0.06934608
56	0xbd24d624	-0.040243283
57	0x3cef7b95	0.029233733
58	0xbac22da8	-0.0014814632
59	0xbcf1123a	-0.029427636
60	0x3cb9b164	0.022667594
61	0xbba7b4a2	-0.0051179687
62	0x3d09a57f	0.033605095
63	0x3c08b569	0.008344033
64	0xbc6e719c	-0.014553454
65	0xbce53e0d	-0.02798369
66	0x3b7a9581	0.0038236084
67	0x3ce973c2	0.02849758
68	0x3d13faa6	0.03612771
69	0x3c3e53d7	0.011616669
70	0xbc008bcb	-0.007845829
71	0xbd4d9bcf	-0.05019742
72	0xbc31399c	-0.010816958
73	0xbbdaacb0	-0.006673418
74	0x3d5f00a7	0.05444398
75	0x3cca7860	0.024715602
76	0xbc8de2b1	-0.017320009
77	0xbc2452b9	-0.010029488
78	0x3cebade8	0.028769448
79	0x388b6a8c	6.6478824e-05
80	0x3cc9b78d	0.024623657
81	0x3c85f9e5	0.01635451
82	0xbd52033d	-0.05127262
83	0xbcc46466	-0.023973655
84	0xbd149682	-0.036276348
85	0xbd9294fc	-0.07157323
86	0x3cf9539d	0.030435378
87	0xbcb2fe47	-0.021849765
88	0x3bdf0527	0.006806034
89	0x3c61e14f	0.013786628
90	0xbd81f6d3	-0.06345906
91	0x3b402a17	0.0029321963
92	0x3c1bd16b	0.009510378
93	0xbd300029	-0.042968903
94	0xbd4e6eef	-0.050398763
95	0xbb68b0ec	-0.0035505844
96	0xbd6b7751	-0.057486836
97	0xbcecf88f	-0.028927116
98	0xbc3727c3	-0.0111789135
99	0x3d54cd8b	0.051953834
100	0xbd2c69c4	-0.042093053
101	0x3bf8d919	0.0075942394
102	0xbcd34f50	-0.025794655
103	0x3c3e2090	0.011604443
104	0x3ca3f3d6	0.020013731
105	0x3c2ecad7	0.010668478
106	0x3d2ff2a7	0.04295602
107	0xbd171bb8	-0.03689167
108	0xbcdabef3	-0.02670238
109	0xbd72c845	-0.059273023
110	0xbd654a20	-0.055978894
111	0x3d2c5d0b	0.04208092
112	0xbc462735	-0.012094309
113	0xbc73db8e	-0.014883889
114	0xbcbfd815	-0.023418466
115	0x3bdb95d3	0.00670121
116	0xbd676db5	-0.05650111
117	0xbbf7e065	-0.0075645917
118	0x3b8dd030	0.0043277964
119	0xbcf1a1a5	-0.029496023
120	0xbd5073f6	-0.05089184
121	0x3c74cdd7	0.014941654
122	0x3cab3af8	0.020902142
123	0xbd4e356d	-0.05034392
124	0xbd3114cf	-0.043232735
125	0xbd3e2a0b	-0.046426814
126	0xbc93e942	-0.018055562
127	0x3d31ae81	0.04337931
128	0x3d14efb2	0.036361404
129	0x3d48f2e4	0.049059764
130	0xbd6101e7	-0.054933455
131	0xbc792d10	-0.015208498
132	0xbd416942	-0.047219522
133	0x3d3a9cf8	0.045559853
134	0xbd877f0b	-0.066160284
135	0xbcee2ade	-0.029073175
136	0x3b4ad29c	0.0030948287
137	0x3d341e62	0.043974288
138	0xbd308833	-0.04309864
139	0xbc95624f	-0.018235354
140	0x3c336700	0.01094985
141	0xbcff6de2	-0.031180326
142	0xbd72f614	-0.05931671
143	0x3d503369	0.05083028
144	0xbcdb7b1e	-0.026792105
145	0x3c7abe76	0.0153041985
146	0x3ba10f6c	0.0049151685
147	0x3cb09dd8	0.02155964
148	0xbc7c6aa1	-0.015406282
149	0xbce6389b	-0.028103163
150	0xbd8a158a	-0.067423895
151	0xbd027bba	-0.031856276
152	0xbd35f9ae	-0.044427566
153	0xbd6a021f	-0.05713093
154	0x3c885122	0.01664025
155	0xbd9237aa	-0.07139523
156	0xbd212be3	-0.039348494
157	0x3cf123e4	0.02943606
158	0x3d47dcd5	0.048794586
159	0xbd20165d	-0.039083827
160	0x3c9cb5dc	0.019129686
161	0xbc6d2452	-0.0144739915
162	0xbd921c6b	-0.071343265
163	0x3ad1f189	0.0016017418
164	0xbd597cbe	-0.05309748
165	0xbd11f9fa	-0.035638787
166	0x3d0422b5	0.03225966
167	0x3c1a231c	0.009407785
168	0x3c0bc884	0.008531693
169	0x3d0439ff	0.032281872
170	0xbd0a4a32	-0.033762164
171	0x3cd4c017	0.025970502
172	0x3d3be486	0.045872234
173	0xbd5fa0e4	-0.054596797
174	0xb8047918	-3.158403e-05
175	0x3ccbdc93	0.024885451
176	0x3cc11583	0.023569828
177	0x3d361b97	0.044459905
178	0x3cc69084	0.024238832
179	0x3cce3e7f	0.025176285
180	0x3bac50dd	0.005258663
181	0xbd0e11e0	-0.034685016
182	0xbd01fd12	-0.031735487
183	0x3bc26f3f	0.0059336717
184	0x3b6b54d4	0.0035908716
185	0xbcaf3e70	-0.021392077
186	0xbd58948f	-0.05287605
187	0x3cb7127c	0.022347681
188	0xbd628bec	-0.05530922
189	0xbc4adc01	-0.012381555
190	0x3c929cfe	0.017897125
191	0xbc93cc04	-0.018041618
192	0x3d47adc1	0.04874969
193	0x3d0798c0	0.033104658
194	0xbd47eeaa	-0.048811592
195	0xbd0e10b5	-0.0346839
196	0x3d5d38b8	0.05400917
197	0xbcfde6a5	-0.030993769
198	0x3d0485f2	0.032354303
199	0xbd564913	-0.052315783
200	0xbd06e1b2	-0.032930084
201	0x3ce3f995	0.02782897
202	0xbc971172	-0.018440936
203	0x3cf07a69	0.029355245
204	0xbc5b9ac8	-0.013403602
205	0xbc142d4c	-0.009044003
206	0xbc88dc75	-0.016706685
207	0xbab3a0dc	-0.0013704556
208	0xbd336785	-0.043799896
209	0x3c15a622	0.009133847
210	0xbd66023a	-0.056154467
211	0xbce43a7a	-0.027859915
212	0xbce74834	-0.028232671
213	0xbd08946f	-0.033344682
214	0x3d47b8ab	0.048760097
215	0xbd78e748	-0.060767442
216	0xbc7ea6c9	-0.015542694
217	0x3cbec7e8	0.023288682
218	0x3d2e8d9b	0.042615514
219	0xbd7aca51	-0.0612281
220	0xbbc9f368	-0.0061630495
221	0x3ce39784	0.02778221
222	0x3d161982	0.03664542
223	0xbb0a2d18	-0.0021084007
224	0x3cdd62bf	0.027024625
225	0xbc50a752	-0.012735205
226	0xbc921503	-0.017832285
227	0xbd4388b3	-0.04773779
228	0xbc06270a	-0.008188019
229	0x3ac84b1f	0.0015281177
230	0xbd0b619e	-0.034028642
231	0xbd2c4e49	-0.042066846
232	0xbbb04bf1	-0.0053801467
233	0xbd873ff3	-0.06603994
234	0xbb416798	-0.002951121
235	0xbd9a3a39	-0.07530636
236	0xbd5eab2b	-0.054362457
237	0x3d376952	0.044778176
238	0xbcd21c60	-0.025648296
239	0xbc8d6793	-0.017261302
240	0x3d1af949	0.037835393
241	0x3c8eba46	0.017422806
242	0x3d135d88	0.03597787
243	0x3c944ed9	0.018104004
244	0x3c8b8403	0.017030722
245	0x3be598e7	0.007006753
246	0xbd6a1071	-0.057144586
247	0x3c0db96c	0.008650165
248	0x3cec0943	0.02881301
249	0xbca8e769	-0.020618157
250	0x3c4edbe5	0.012625669
251	0xb9d3f504	-0.00040427607
252	0xbd8a32aa	-0.06747945
253	0xbd6fb3ad	-0.05852096
254	0x3c3e2bfe	0.011607168
255	0xbbe3b3b5	-0.006948913

hidden.0.bias f4 [300]
0	0x3bb9a83a	0.005665806
1	0x3cd1919e	0.025582131
2	0xbb921153	-0.0044576316
3	0xbd5cd872	-0.053917356
4	0x3d0b5caf	0.034023937
5	0x3d004413	0.03131492
6	0xbd6756b7	-0.056479182
7	0xbd6585b3	-0.05603571
8	0xbc026caf	-0.0079604825
9	0xbd2e5b0b	-0.042567294
10	0xbd0219b5	-0.031762797
11	0x3cb99bdf	0.022657333
12	0x3b3d8374	0.0028917463
13	0x3bbe6e33	0.0058114766
14	0xbd03f5bd	-0.032216776
15	0x3c513de0	0.0127711
16	0xbd404cdc	-0.0469483
17	0x3d127c49	0.03576306
18	0xbca14165	-0.019684503
19	0x3c30e90c	0.01079775
20	0xbc7d928f	-0.015476837
21	0x3cbc8c53	0.02301613
22	0x3c50e624	0.012750182
23	0xbd1322ed	-0.03592198
24	0x3c800f80	0.015632391
25	0xbca51e69	-0.020156102
26	0x3ac35701	0.0014903249
27	0xbcf444dd	-0.029817993
28	0xbc2b7f10	-0.010467306
29	0xbc975e17	-0.018477483
30	0xbcf037e3	-0.029323524
31	0xbcf1fd8e	-0.02953985
32	0x3c043415	0.008069058
33	0xbd14dd6f	-0.036343988
34	0x3c5d237b	0.013497229
35	0x3ce5c828	0.028049543
36	0x3b4ee5ac	0.003157
37	0xbd54110a	-0.051774062
38	0x3cb9665d	0.022631818
39	0x3d024364	0.03180255
40	0x3ca389fd	0.019963259
41	0xbc5bc6ae	-0.013414068
42	0x3b60b2ea	0.0034286329
43	0xbc6369e0	-0.013880223
44	0xbd5b1ecf	-0.05349618
45	0xbced357d	-0.02895617
46	0x3c340a9c	0.010988858
47	0xbc2c4882	-0.010515334
48	0x3cdedc71	0.027204724
49	0x3b4d78d2	0.0031352532
50	0x3c589d3f	0.013221084
51	0xbcb36b3f	-0.021901725
52	0xbc84fb04	-0.016232975
53	0xbc90c5b8	-0.017672405
54	0xbd04f238	-0.03245756
55	0x3c8913bb	0.016733041
56	0xbca37130	-0.019951433
57	0x3ce964db	0.028490474
58	0xbd648ee4	-0.055800334
59	0x3c98d942	0.018658284
60	0xbc364040	-0.011123717
61	0xbd3901b4	-0.04516764
62	0xbd278afd	-0.040904034
63	0xbd406412	-0.046970434
64	0xbc8031dd	-0.015648777
65	0x3ca276a3	0.019831961
66	0xbd6a81c3	-0.057252657
67	0x3c57a8d1	0.013162808
68	0xbd10fa93	-0.035395216
69	0xbd40996b	-0.04702131
70	0x3ca2e121	0.01988274
71	0x3cf9b15d	0.030480081
72	0xbca96daf	-0.020682184
73	0xbca83b1f	-0.020536004
74	0xbc551daf	-0.013007565
75	0xbd13ee02	-0.036115654
76	0xbd67fda7	-0.056638386
77	0xbb9f2f6e	-0.004857949
78	0xbd05b979	-0.032647584
79	0x3c1b49c2	0.009478034
80	0x3ccc5ad4	0.024945654
81	0x3c9086f4	0.017642476
82	0xbcd25d19	-0.025679158
83	0xbd2f716a	-0.04283277
84	0xbd5d0a76	-0.053965054
85	0xbbbb4956	-0.0057155294
86	0x3c1af388	0.009457476
87	0xbb098b29	-0.0020987487
88	0x39d45739	0.00040500777
89	0x3c5b1fe5	0.0133743035
90	0xbc18b210	-0.009319797
91	0xbc8170e8	-0.015800908
92	0xbcaebf7b	-0.02133154
93	0xbd61c43a	-0.055118777
94	0x3c481eae	0.012214346
95	0x3cb989c4	0.0226487
96	0x3bb8dcb3	0.005641544
97	0xbc849cf4	-0.016188122
98	0x3c47c332	0.012192534
99	0x3d4fef90	0.050765574
100	0xbb0fa544	-0.0021918574
101	0xbb8691d6	-0.0041067405
102	0xbb8766d9	-0.0041321334
103	0x3b94fae0	0.004546508
104	0x3cf83afa	0.03030156
105	0xbcda8b08	-0.026677623
106	0x3c639498	0.013890408
107	0xbd4a8e55	-0.049452145
108	0xbc7c63a2	-0.015404614
109	0x3cbcb222	0.02303416
110	0xbcf1aa06	-0.029500019
111	0xbc1204c0	-0.008912265
112	0xbd35018a	-0.04419092
113	0xbd2a8ee7	-0.04164019
114	0xbcb51d92	-0.022108827
115	0x3c69dc84	0.014273766
116	0xbcb328b4	-0.021869995
117	0xbd09b7f5	-0.0336227
118	0xbcdd1ed0	-0.026992232
119	0xbbd97d86	-0.006637278
120	0x3c67d6f7	0.014150373
121	0xbd441a54	-0.04787667
122	0xbaa5179e	-0.001259554
123	0xbd030834	-0.031990245
124	0xbc560193	-0.013061899
125	0x3ccd33d6	0.025049131
126	0xbb4ae215	-0.003095751
127	0xbd62424a	-0.055239
128	0xbd49b276	-0.04924246
129	0x3c89224f	0.016739992
130	0xbccaec4d	-0.02477088
131	0x3ba5f19f	0.005064204
132	0x3b969b21	0.0045961295
133	0xbd4bdb71	-0.049769823
134	0xbb1f414d	-0.0024300397
135	0x3ce7501c	0.028236441
136	0xbd3c843b	-0.046024542
137	0xbc09c1cf	-0.008408024
138	0x3c124620	0.008927852
139	0x3c4c4d23	0.012469563
140	0x3b35a07f	0.0027714071
141	0x3bd37e5b	0.0064542717
142	0xbd568b94	-0.052379206
143	0xbd2b3f1b	-0.04180823
144	0xbd79d00c	-0.060989425
145	0x3bff7a14	0.0077965353
146	0x3c986ca0	0.018606484
147	0xbd474e06	-0.048658393
148	0xbcb243de	-0.021760877
149	0xbcc9dfa2	-0.02464277
150	0x3cc73f7e	0.024322268
151	0xba3e8404	-0.00072675967
152	0x3c04b4d2	0.008099752
153	0xbc81d04f	-0.0158464
154	0x3c22586f	0.0099087795
155	0x3c37c0a6	0.011215365
156	0xbcf5e6cf	-0.030017285
157	0x3c9c0404	0.019044884
158	0xbbdb04c4	-0.0066839177
159	0xbbe946d6	-0.00711904
160	0x3c8faff3	0.017539954
161	0xbbcf42cf	-0.006325103
162	0xbd34d2d3	-0.04414637
163	0xbd3d58a2	-0.046227105
164	0xbced9570	-0.029001921
165	0xbcdc6eb1	-0.02690825
166	0xbcfc0d0a	-0.030767936
167	0xbc15de2a	-0.009147206
168	0xbd1ea953	-0.0387357
169	0x3c22c19f	0.009933858
170	0xbcfb78cd	-0.03069725
171	0xbc815eea	-0.015792329
172	0x3bd75f8c	0.0065726694
173	0xba5bea05	-0.00083890586
174	0x3cc6ead8	0.024281904
175	0xbb3a8d49	-0.002846556
176	0xbbcf8518	-0.0063330047
177	0x3c8e6d0c	0.017385982
178	0xba1e811f	-0.0006046462
179	0xbd23f4ec	-0.040028498
180	0x3c67f7b4	0.014158178
181	0xbd442427	-0.04788604
182	0xbc3dce13	-0.011584776
183	0xbc2a35fc	-0.010388847
184	0x3c167e4c	0.009185385
185	0x3add1489	0.0016867082
186	0xbd555793	-0.05208547
187	0xbd68db2d	-0.056849647
188	0x3d1665f0	0.03671831
189	0xbc63ac78	-0.0138961
190	0xbd725ca1	-0.05917037
191	0xbb15d9d7	-0.0022865438
192	0x3d0926ac	0.033484146
193	0xbcbfba17	-0.023404164
194	0xbb9a0770	-0.0047005937
195	0x3cd2a326	0.02571256
196	0xbc9fafe8	-0.019493058
197	0xbbb6e65f	-0.0055816616
198	0x3cdfc504	0.027315624
199	0x3ca2b04e	0.01985946
200	0xbd17f235	-0.03709622
201	0xbcf680f6	-0.03009079
202	0x3d17865b	0.036993366
203	0xbcd8f269	-0.026482778
204	0xbd542889	-0.05179647
205	0xbd611ef2	-0.054961152
206	0xbd4fd9d4	-0.050744846
207	0x3cca3bc4	0.024686702
208	0xbc8c184f	-0.017101435
209	0xbb65cb97	-0.0035063976
210	0x3c473fc0	0.012161195
211	0xbd10c140	-0.035340548
212	0x3b3058ac	0.0026908321
213	0xbd0fe63e	-0.035131685
214	0xbd22341e	-0.039600484
215	0xbc9150dc	-0.017738752
216	0x3c358306	0.011078602
217	0xbbf48968	-0.007462669
218	0x3cb59362	0.022165004
219	0xbc34d43c	-0.011036929
220	0xbc07cfb5	-0.008289267
221	0xbc476c6a	-0.012171844
222	0xbcb74253	-0.022370493
223	0xbc07420e	-0.008255495
224	0xbd1d4f54	-0.03840573
225	0xbd254b7d	-0.040355194
226	0xbd2ccf98	-0.042190164
227	0x3be029a0	0.0068408996
228	0xbcde56cb	-0.027140995
229	0xbbb15705	-0.005411985
230	0xbd5c11c8	-0.053727895
231	0xbacbf108	-0.0015559504
232	0x3ccd1dcc	0.025038622
233	0x3cb76880	0.022388697
234	0xbc91b582	-0.017786745
235	0xbc79fd19	-0.015258097
236	0xbc3fa433	-0.011696863
237	0xbd00a8df	-0.031411048
238	0x3c7af502	0.0153172035
239	0xbd13c29a	-0.03607426
240	0xbca394cc	-0.019968413
241	0x3bc0fc73	0.0058894693
242	0x3c705e24	0.014670882
243	0x3d060820	0.032722592
244	0xbcd29d36	-0.02570973
245	0xbd5492c7	-0.05189779
246	0xbcae7f8e	-0.021301057
247	0xbd3dc50d	-0.0463305
248	0x3c8b94e0	0.017038763
249	0xbc476b5f	-0.012171595
250	0x3c746ede	0.014919011
251	0xbd3f4cdf	-0.04670417
252	0x3cb67528	0.022272661
253	0x3cb49498	0.022043511
254	0xbd4e7822	-0.050407536
255	0xba09cba0	-0.0005256478

hidden.1.weight f4 [300, 300]
0	0xbd8991ef	-0.06717288
1	0xbc5fd127	-0.013660706
2	0xbc2fba67	-0.010725594
3	0xbcce3aec	-0.02517458
4	0xbd1d2413	-0.03836448
5	0x39876aae	0.0002582869
6	0x3c94159c	0.01807671
7	0xbac707d6	-0.001518483
8	0xbd0aae09	-0.03385738
9	0x3d047317	0.03233632
10	0x3d4256fb	0.047446232
11	0x3c0e7f0e	0.008697284
12	0xbd188078	-0.037231892
13	0xbd47f202	-0.04881478
14	0x3c8476a4	0.016169854
15	0x3d98924a	0.074497774
16	0x3cf946a3	0.03042919
17	0xbbb7084c	-0.005585706
18	0xbd0c76f5	-0.034293134
19	0xbd962ebd	-0.07333133
20	0x3cf84521	0.0303064
21	0xbbedc646	-0.007256302
22	0xbc9ce6da	-0.019153047
23	0x3c29632b	0.010338585
24	0xbc994706	-0.018710624
25	0x3d1f5b4e	0.038905434
26	0x3d12aa6b	0.035807054
27	0xbd735389	-0.059405837
28	0x3ce9c35d	0.02853554
29	0xbd07df7f	-0.033172127
30	0x3c837fc4	0.016052134
31	0xbc82416e	-0.01590034
32	0x3d26244c	0.04056196
33	0xbb5fbf01	-0.0034140947
34	0x3ce10f6e	0.027473178
35	0x3bf5612d	0.007488391
36	0xbd76b8ec	-0.06023495
37	0x3cb70cc4	0.022344954
38	0xbc67e24b	-0.014153074
39	0x3cdbc824	0.026828833
40	0x3c95e7ff	0.0182991
41	0xbd26cf11	-0.040724818
42	0xbd122e5e	-0.03568875
43	0xbce3ddf6	-0.0278158
44	0xbd0c297f	-0.03421926
45	0xbd048897	-0.032356825
46	0xbc6d587b	-0.014486427
47	0x3d4480c4	0.047974363
48	0x3c667347	0.01406557
49	0xbd12a420	-0.035801053
50	0x3cbb6d7a	0.02287935
51	0xbb69fc8a	-0.0035703504
52	0xbc658d45	-0.014010732
53	0xbdbe1190	-0.092806935
54	0x3d06b919	0.032891367
55	0xbd3eebe3	-0.046611678
56	0x3c334b41	0.010943235
57	0x3cbbbb2c	0.022916399
58	0x3d07415e	0.033021323
59	0xbd80ab93	-0.06282725
60	0xbd4739dc	-0.048639163
61	0x3b9ed543	0.0048472
62	0x3b194cd0	0.002339173
63	0x3d1f114c	0.038834855
64	0xbd3b6b01	-0.045756344
65	0x3cb24581	0.021761658
66	0x3cc73601	0.024317743
67	0x3d0242fd	0.031802166
68	0xbc9cf06d	-0.019157613
69	0x3d86fb93	0.06590953
70	0xbb2c6d59	-0.0026310293
71	0xbd4f20e9	-0.050568495
72	0x3d4e7a27	0.050409462
73	0x3daae5bf	0.08344602
74	0x3ccd8aa4	0.025090523
75	0x3d660ef2	0.056166597
76	0x3c94eec9	0.018180268
77	0xbd82af61	-0.06381107
78	0x3be6a5d9	0.0070388136
79	0x3af8d5d4	0.0018984624
80	0x3cc172fa	0.023614395
81	0x3c0db528	0.008649148
82	0xbca414ec	-0.020029508
83	0x3cc957cb	0.024577996
84	0x3ccf667f	0.025317429
85	0xbd19b9c3	-0.03753067
86	0x3c152ac8	0.009104438
87	0x3cefce68	0.029273227
88	0x3e1b7e46	0.15184888
89	0x3b926f23	0.004468815
90	0x3d7d0d17	0.06178006
91	0x3c9f28c6	0.019428622
92	0xbb36a008	-0.0027866382
93	0xbd85ffa1	-0.06542898
94	0x3b5b2d46	0.0033443733
95	0x3c785253	0.015156346
96	0xbd0fd4b6	-0.035114966
97	0xbc53d478	-0.0129290745
98	0x3c6df3d5	0.014523466
99	0x3e19eee4	0.15032536
100	0xbd122766	-0.035682105
101	0xbd29caa2	-0.04145301
102	0xbd5ac1ed	-0.0534076
103	0xbc5b2adf	-0.0133769205
104	0x3cfa9911	0.030590566
105	0xbd094ebf	-0.033522364
106	0xbc79c368	-0.015244342
107	0xbcc41839	-0.023937332
108	0xbb7fbca2	-0.0039022346
109	0xbd1ba6e7	-0.038000967
110	0x3d4e4e32	0.05036754
111	0x3d1afbeb	0.037837904
112	0xbcca0bbb	-0.024663797
113	0xbd040676	-0.032232724
114	0xbc226899	-0.009912633
115	0xbc9a089e	-0.018802937
116	0x3c2b05c2	0.0104383845
117	0x3cb4685d	0.02202242
118	0x3d14bae1	0.036311034
119	0xbb492330	-0.003069114
120	0x3b1d726b	0.0024024497
121	0x3ca83f04	0.02053786
122	0xbcdeee38	-0.0272132
123	0x3b449ab9	0.0029999448
124	0xbce4aad4	-0.027913488
125	0xbbe2a21c	-0.0069162976
126	0xbd156103	-0.03646947
127	0xbd706ea2	-0.058699258
128	0x3cc142c2	0.023591403
129	0x3cea8b06	0.028630745
130	0xbc7a90d1	-0.015293316
131	0xbd342240	-0.043977976
132	0xbc6ab7c8	-0.014326043
133	0x3c538c8a	0.012911925
134	0x3d887819	0.06663532
135	0xbd6dac3d	-0.058025587
136	0x3c3d2f61	0.011546941
137	0x3ba79c12	0.0051150406
138	0xbcaad727	-0.020854546
139	0xbb33f8e7	-0.002746159
140	0xbd245a21	-0.040125016
141	0xbce8c0bd	-0.028412217
142	0x3c8f784e	0.01751342
143	0xbc7c3c1f	-0.015395193
144	0x3bb6732f	0.00556793
145	0xbbbf4090	-0.005836554
146	0xbb0114b0	-0.0019696169
147	0x3bbe8a59	0.005814832
148	0x3cf93463	0.030420488
149	0x3d236719	0.039893243
150	0x3c94b78b	0.018153926
151	0x3c36af22	0.011150153
152	0x3cda1422	0.026620928
153	0xbd613d87	-0.054990318
154	0xbd5c52c0	-0.053789854
155	0x3d2bac45	0.041912336
156	0xbccb14bd	-0.024790162
157	0x3cf275de	0.02959722
158	0x3d60ad4e	0.054852776
159	0x3d1efc4b	0.038814824
160	0xbbacaa98	-0.00526936
161	0x3d788fa0	0.060683846
162	0xbd5a940d	-0.05336385
163	0x3c9a1744	0.018809922
164	0x3d630d54	0.055432633
165	0xbd09250d	-0.0334826
166	0x3ceabe30	0.028655142
167	0xbb2288bb	-0.0024800736
168	0x3ca9179c	0.02064114
169	0xbd83ac5e	-0.06429361
170	0x3d5f8627	0.054571297
171	0xbb6e4f8b	-0.003636333
172	0x3d37e25c	0.044893607
173	0xbd7a42ff	-0.06109905
174	0x3ceb0f36	0.028693777
175	0xbc9656ea	-0.01835199
176	0xbd427418	-0.047473997
177	0x3d58361e	0.052785985
178	0x3c179227	0.009251154
179	0xbc9eda3d	-0.019391173
180	0xbc5cf83e	-0.01348692
181	0xbcdf0c85	-0.02722765
182	0xbd196770	-0.03745216
183	0xbce01960	-0.02735585
184	0x3d16702a	0.03672806
185	0xbcd2e0b4	-0.025741912
186	0xbc2f9b8a	-0.010718236
187	0x3d77754b	0.060414594
188	0x3b9f5152	0.004861989
189	0xbe0f71a8	-0.140082
190	0x3c4211b7	0.011845044
191	0x3cfa867a	0.030581702
192	0xbc2a48ab	-0.010393302
193	0xbc6135c7	-0.013745732
194	0xbc105194	-0.008808512
195	0xbb07591e	-0.0020652483
196	0x3c990f2c	0.018683992
197	0xbccd4a61	-0.02505988
198	0x3b9f513a	0.004861978
199	0xbd9fc036	-0.07800333
200	0xbd60897e	-0.054818623
201	0xbd6309d9	-0.055429313
202	0x3cb2ad0e	0.021811035
203	0xbda49c76	-0.08037655
204	0x3c99ecd0	0.018789679
205	0xbce052e1	-0.02738327
206	0xbca6a8b3	-0.020344114
207	0xbcf712b9	-0.030160295
208	0xbd29ed5b	-0.041486125
209	0xbd2a0f97	-0.041518774
210	0x3d1cc564	0.038274184
211	0xbb1c58a2	-0.002385654
212	0xbd0fd3e1	-0.035114173
213	0xbc51902f	-0.012790724
214	0x3c85f436	0.0163518
215	0x3d3c696c	0.045998976
216	0xbd13729e	-0.03599798
217	0x3d303f6f	0.043029245
218	0x3b8f3f57	0.0043715644
219	0x3cfa883b	0.030582538
220	0xbd891e02	-0.06695177
221	0x3d26f7ca	0.040763654
222	0x3d135fbd	0.035979975
223	0xbc8fb5e5	-0.017542789
224	0x3d476dd5	0.04868873
225	0xbc69cac0	-0.014269531
226	0x3d1288a0	0.035774827
227	0x3d829014	0.06375137
228	0xbca7d708	-0.020488277
229	0x3d1227ba	0.035682417
230	0xbc500d78	-0.012698524
231	0xbb9c4ad1	-0.004769661
232	0xbcc2dd82	-0.023787264
233	0xbd2d83ba	-0.042361952
234	0xbcef2cef	-0.02919623
235	0xbb76def5	-0.0037669514
236	0xbc3b5111	-0.011432902
237	0xbd1a643a	-0.03769324
238	0xbd875a2b	-0.06608995
239	0x3e5b2743	0.21401696
240	0x3c7e7e12	0.015532987
241	0xbd13eb09	-0.03611282
242	0xbd811644	-0.06303075
243	0xbc84eb91	-0.016225608
244	0x3c7c5636	0.015401414
245	0xbd8a6054	-0.067566544
246	0xbce38ca0	-0.027777016
247	0x3c90fd75	0.017698983
248	0xbcb39868	-0.021923259
249	0x3c9b35a1	0.01894647
250	0x3d32baf8	0.04363534
251	0xbb34f1e3	-0.0027609996
252	0x3b043584	0.00201735
253	0x3ca31c12	0.019910846
254	0xbd89ff6b	-0.0673817
255	0xbc19721a	-0.009365583

hidden.1.bias f4 [300]
0	0x3ca42732	0.020038221
1	0xbd5d5bba	-0.054042555
2	0xbd1db0a5	-0.03849854
3	0xbc26e10f	-0.010185494
4	0xbcef362b	-0.029200634
5	0xbd8bed42	-0.06832363
6	0x3d2f1946	0.042748712
7	0x3c65680f	0.01400186
8	0xbdd10c9a	-0.10207482
9	0xbcb427ac	-0.021991573
10	0xbe09cb2d	-0.13456412
11	0x3dd3c6d4	0.10340658
12	0xbbd694a0	-0.006548479
13	0xbc7bcc6c	-0.015368562
14	0x3cd6739d	0.026178176
15	0x3c34feec	0.011047106
16	0xbd8e0019	-0.069336124
17	0x3bdc5197	0.0067235935
18	0xbc6565e5	-0.014001344
19	0xbdd3bf50	-0.10339224
20	0x3d07999d	0.03310548
21	0xbc658f85	-0.0140112685
22	0xbdb35ea4	-0.08758286
23	0x3ce6c4cf	0.028170018
24	0x3c52a6fe	0.012857197
25	0xbb151b71	-0.0022751952
26	0xbc241e82	-0.010017039
27	0x3d30e954	0.04319127
28	0xbd6e89a2	-0.058236726
29	0xbbc51255	-0.0060141482
30	0x3d1ab37b	0.037768822
31	0x3bfdc63f	0.00774458
32	0xbd86ea80	-0.06587696
33	0xbc6e4dc3	-0.014544907
34	0x3b1a28df	0.0023522896
35	0xbd397556	-0.045277916
36	0xbc9b9911	-0.018993886
37	0x3d4bb306	0.049731277
38	0xbd0c7b38	-0.034297198
39	0xbcce1049	-0.02515425
40	0x3cdef8c8	0.027218238
41	0x3dadf5f2	0.08494176
42	0xbd73b366	-0.05949726
43	0x3a4f9e58	0.00079200184
44	0xbda26831	-0.07930029
45	0xbe06301c	-0.1310429
46	0xbd391504	-0.045186058
47	0xbdb33a16	-0.087513134
48	0xbcd47c69	-0.02593823
49	0xbd90031d	-0.07031844
50	0xbd7d6559	-0.06186423
51	0xbdb95cbe	-0.09050892
52	0xbc90ff38	-0.017699823
53	0xbd41988f	-0.04726463
54	0x3d3fe3cc	0.046848103
55	0xbdd7de28	-0.1054042
56	0x3cb4ff25	0.022094319
57	0xbd88ec41	-0.06685687
58	0xbd8f098e	-0.06984244
59	0xbd458bb6	-0.04822894
60	0xbd9ccd00	-0.07656288
61	0x3d38713f	0.045029875
62	0xbd93bcd6	-0.07213752
63	0xbe0096c0	-0.12557507
64	0x3d27287c	0.040810093
65	0x3c8b725b	0.017022302
66	0x3d8da3ff	0.069160454
67	0xbd92301d	-0.07138083
68	0x3d2a3f3f	0.041564222
69	0x3d405b37	0.04696199
70	0xbd70be87	-0.05877545
71	0xbcd33f04	-0.025786884
72	0xbddf10cf	-0.10891878
73	0xbc889823	-0.016674107
74	0x3ca34158	0.01992862
75	0x3caddf4f	0.021224646
76	0x3d06b31f	0.032885667
77	0xbd6d4e51	-0.057936016
78	0xbce12c73	-0.027487015
79	0xbcc4add5	-0.02400867
80	0xbc60f454	-0.013730127
81	0x3d25a31e	0.040438764
82	0xbd4ea988	-0.050454646
83	0x3cc0f1f2	0.023552869
84	0xbcac3dc6	-0.02102555
85	0xbd15f88d	-0.03661399
86	0x3b1510f0	0.0022745691
87	0xbd3d5643	-0.046224844
88	0xbc692075	-0.01422893
89	0xbd2118a6	-0.039330147
90	0xbd49b114	-0.04924114
91	0x398402d9	0.00025179124
92	0x3cdda878	0.027057871
93	0xbdc6481e	-0.09681724
94	0x3d1bf269	0.038072977
95	0x3caeb4f2	0.021326516
96	0xbd1a5fa5	-0.03768887
97	0xbd148046	-0.036255144
98	0xbd09178d	-0.033469725
99	0xbd4a7311	-0.049426142
100	0x3cec5ee6	0.028853845
101	0xbd9f259d	-0.07770846
102	0xbdf61ac4	-0.12016824
103	0x3db442b0	0.08801782
104	0xbd3c4f02	-0.045973785
105	0xbd515d6a	-0.051114477
106	0xbcfa4d37	-0.030554397
107	0xbc0695ab	-0.008214395
108	0xbc5193a5	-0.012791549
109	0xbcf854af	-0.030313818
110	0x3d0f9dbd	0.03506254
111	0x3c66b317	0.014080784
112	0xbd33b601	-0.043874744
113	0xbd06ec06	-0.032939933
114	0x3c28d286	0.010304099
115	0xbca64ee1	-0.020301284
116	0xb8d12d83	-9.974374e-05
117	0xbdcfdc0f	-0.10149395
118	0xbdae2646	-0.08503394
119	0xbbfa9085	-0.0076466226
120	0xbddf9460	-0.10916972
121	0x3c2d7224	0.010586295
122	0xbd1600ea	-0.036621965
123	0x3c47b3a1	0.012188823
124	0x3da17712	0.07884039
125	0x3d891d1c	0.06695005
126	0xbd255168	-0.04036084
127	0xbcc7e45d	-0.024400884
128	0xbdf5e1b5	-0.12005941
129	0xbc31e2bf	-0.010857283
130	0xbd90683f	-0.07051133
131	0xbd7d196d	-0.061791826
132	0xbc717cc6	-0.014739221
133	0xbd9e1938	-0.07719654
134	0xbd392bd5	-0.045207817
135	0x3be5242a	0.0069928365
136	0xbd5ca131	-0.05386466
137	0xbd12582c	-0.03572862
138	0xbde57891	-0.11204637
139	0x3d2a74fb	0.041615468
140	0xbd90279d	-0.07038806
141	0x3c8e08fc	0.017338268
142	0xbdac89af	-0.084246986
143	0xbdd8c1a0	-0.10583806
144	0xbc55db91	-0.013052837
145	0xbdb21cfd	-0.08696935
146	0x3c877eb9	0.016539918
147	0xbd1a4b21	-0.037669305
148	0x3dad213a	0.08453603
149	0xbdcab322	-0.09897448
150	0x3997c716	0.00028949295
151	0xbe000f6d	-0.12505884
152	0xbcf4e522	-0.029894415
153	0x3d61f612	0.05516631
154	0x3adfdbbe	0.0017079038
155	0xbde22b31	-0.11043394
156	0xbbc187d7	-0.005906086
157	0x3dbf8238	0.09351009
158	0xbda0246a	-0.078194454
159	0xbd0d223a	-0.03445647
160	0x3d7c21b7	0.06155559
161	0xbd86e1b2	-0.06586017
162	0x3d24592f	0.040124115
163	0x3be23985	0.0069038295
164	0xbd5fb68b	-0.054617446
165	0x3c202ce6	0.00977633
166	0xbdd5cf57	-0.104399376
167	0xbcfe9fc3	-0.03108204
168	0xbd75fd6a	-0.060056128
169	0xbda44ec1	-0.080228336
170	0x3994a402	0.00028350955
171	0xbd8b7a5c	-0.068104476
172	0xbd3364b9	-0.04379723
173	0x3d42383c	0.04741691
174	0xbda28f34	-0.0793747
175	0xbd76abad	-0.060222317
176	0x3baa850a	0.005203848
177	0x3d9e8b1f	0.07741379
178	0xbdc3935e	-0.095495924
179	0x3c91b6b7	0.01778732
180	0xbb4a35f5	-0.0030854915
181	0xbd3ba98b	-0.045815986
182	0xbdd71409	-0.10501868
183	0x3d031837	0.032005515
184	0xbd4deb9f	-0.050273534
185	0xbd2d27e7	-0.042274382
186	0xbd838b4c	-0.06423053
187	0x3d5d6746	0.054053567
188	0xbd32e056	-0.043670975
189	0xbd6c5a02	-0.057703026
190	0xbdd9cfee	-0.106353626
191	0x3db202e2	0.08691956
192	0xbd0954f0	-0.03352827
193	0xbda705ea	-0.08155425
194	0xbe0f27d0	-0.13980031
195	0xbded5285	-0.11588005
196	0xbd5be54c	-0.05368547
197	0xbd8f8085	-0.07006935
198	0x3d0a466a	0.03375856
199	0x3c35d4c5	0.0110980915
200	0x3d0bf5ed	0.03417008
201	0x3b70733e	0.0036689783
202	0xbcf39e0f	-0.029738454
203	0x3c5945e5	0.013261293
204	0x3db571f9	0.08859629
205	0xbc79b816	-0.015241643
206	0xbc46febf	-0.012145697
207	0x3d30b4e5	0.043141264
208	0xbd96022c	-0.07324633
209	0xbda66247	-0.08124214
210	0x3bfbb82c	0.007681867
211	0xbcebc2f2	-0.02877948
212	0xbc6d6356	-0.014489016
213	0xbc58e6f0	-0.013238654
214	0xbca575ea	-0.020197827
215	0x3c8906fd	0.016726965
216	0xbdc74cad	-0.097314216
217	0xbc515d45	-0.012778585
218	0xbd75bdc2	-0.05999542
219	0xbdb97ea6	-0.090573594
220	0xbbdc35a4	-0.0067202616
221	0x3c0cdac8	0.008597083
222	0xbde56f1c	-0.11202833
223	0xbcd273ca	-0.025689978
224	0x3d33d4a4	0.04390396
225	0x3ce462a1	0.027879061
226	0xbddde805	-0.1083527
227	0xbd2742cc	-0.040835187
228	0xbda130e3	-0.078706525
229	0xbd94f29e	-0.07272838
230	0xbd0e77e8	-0.03478232
231	0xbd2f75c4	-0.04283692
232	0xbda1e96e	-0.07905851
233	0x3d484e18	0.0489026
234	0x3d70eabd	0.058817614
235	0xbd27ecf5	-0.040997464
236	0x3d9a01c0	0.07519865
237	0xbda240af	-0.07922494
238	0xbc765e45	-0.015037124
239	0x3a0c1e49	0.0005345089
240	0xba5f736d	-0.00085239747
241	0x3bfa0f83	0.0076312437
242	0xbd60b7e5	-0.054862875
243	0xbcbaf0a0	-0.022819817
244	0xbcacba9c	-0.021085076
245	0x3d1a66e4	0.03769578
246	0x3c7eb833	0.015546846
247	0x3cda66dd	0.026660377
248	0xbcf38a15	-0.029728929
249	0x3c828434	0.01593218
250	0xbd6d88e4	-0.057991877
251	0x3d39f6c9	0.04540137
252	0xbdb8f50e	-0.090311155
253	0x3d649474	0.05580564
254	0xbd57c61b	-0.052679162
255	0xbc36c9b5	-0.011156489
